Model: "model"
__________________________________________________________________________________________________
Layer (type)                    Output Shape         Param #     Connected to                     
==================================================================================================
input_1 (InputLayer)            [(None, 700)]        0                                            
__________________________________________________________________________________________________
dense (Dense)                   (None, 20)           14020       input_1[0][0]                    
__________________________________________________________________________________________________
dense_3 (Dense)                 (None, 20)           14020       input_1[0][0]                    
__________________________________________________________________________________________________
dense_6 (Dense)                 (None, 20)           14020       input_1[0][0]                    
__________________________________________________________________________________________________
dense_9 (Dense)                 (None, 20)           14020       input_1[0][0]                    
__________________________________________________________________________________________________
dense_12 (Dense)                (None, 20)           14020       input_1[0][0]                    
__________________________________________________________________________________________________
dense_15 (Dense)                (None, 20)           14020       input_1[0][0]                    
__________________________________________________________________________________________________
dense_18 (Dense)                (None, 20)           14020       input_1[0][0]                    
__________________________________________________________________________________________________
dense_21 (Dense)                (None, 20)           14020       input_1[0][0]                    
__________________________________________________________________________________________________
dense_24 (Dense)                (None, 20)           14020       input_1[0][0]                    
__________________________________________________________________________________________________
dense_27 (Dense)                (None, 20)           14020       input_1[0][0]                    
__________________________________________________________________________________________________
dense_30 (Dense)                (None, 20)           14020       input_1[0][0]                    
__________________________________________________________________________________________________
dense_33 (Dense)                (None, 20)           14020       input_1[0][0]                    
__________________________________________________________________________________________________
dense_36 (Dense)                (None, 20)           14020       input_1[0][0]                    
__________________________________________________________________________________________________
dense_39 (Dense)                (None, 20)           14020       input_1[0][0]                    
__________________________________________________________________________________________________
dense_42 (Dense)                (None, 20)           14020       input_1[0][0]                    
__________________________________________________________________________________________________
dense_45 (Dense)                (None, 20)           14020       input_1[0][0]                    
__________________________________________________________________________________________________
dense_48 (Dense)                (None, 20)           14020       input_1[0][0]                    
__________________________________________________________________________________________________
dense_51 (Dense)                (None, 20)           14020       input_1[0][0]                    
__________________________________________________________________________________________________
dense_54 (Dense)                (None, 20)           14020       input_1[0][0]                    
__________________________________________________________________________________________________
dense_57 (Dense)                (None, 20)           14020       input_1[0][0]                    
__________________________________________________________________________________________________
dense_60 (Dense)                (None, 20)           14020       input_1[0][0]                    
__________________________________________________________________________________________________
dense_63 (Dense)                (None, 20)           14020       input_1[0][0]                    
__________________________________________________________________________________________________
dense_66 (Dense)                (None, 20)           14020       input_1[0][0]                    
__________________________________________________________________________________________________
dense_69 (Dense)                (None, 20)           14020       input_1[0][0]                    
__________________________________________________________________________________________________
dense_72 (Dense)                (None, 20)           14020       input_1[0][0]                    
__________________________________________________________________________________________________
dense_75 (Dense)                (None, 20)           14020       input_1[0][0]                    
__________________________________________________________________________________________________
dense_78 (Dense)                (None, 20)           14020       input_1[0][0]                    
__________________________________________________________________________________________________
dense_81 (Dense)                (None, 20)           14020       input_1[0][0]                    
__________________________________________________________________________________________________
dense_84 (Dense)                (None, 20)           14020       input_1[0][0]                    
__________________________________________________________________________________________________
dense_87 (Dense)                (None, 20)           14020       input_1[0][0]                    
__________________________________________________________________________________________________
dense_90 (Dense)                (None, 20)           14020       input_1[0][0]                    
__________________________________________________________________________________________________
dense_93 (Dense)                (None, 20)           14020       input_1[0][0]                    
__________________________________________________________________________________________________
dense_96 (Dense)                (None, 20)           14020       input_1[0][0]                    
__________________________________________________________________________________________________
dense_99 (Dense)                (None, 20)           14020       input_1[0][0]                    
__________________________________________________________________________________________________
dense_102 (Dense)               (None, 20)           14020       input_1[0][0]                    
__________________________________________________________________________________________________
dense_105 (Dense)               (None, 20)           14020       input_1[0][0]                    
__________________________________________________________________________________________________
dense_108 (Dense)               (None, 20)           14020       input_1[0][0]                    
__________________________________________________________________________________________________
dense_111 (Dense)               (None, 20)           14020       input_1[0][0]                    
__________________________________________________________________________________________________
dense_114 (Dense)               (None, 20)           14020       input_1[0][0]                    
__________________________________________________________________________________________________
dense_117 (Dense)               (None, 20)           14020       input_1[0][0]                    
__________________________________________________________________________________________________
dense_120 (Dense)               (None, 20)           14020       input_1[0][0]                    
__________________________________________________________________________________________________
dense_123 (Dense)               (None, 20)           14020       input_1[0][0]                    
__________________________________________________________________________________________________
dense_126 (Dense)               (None, 20)           14020       input_1[0][0]                    
__________________________________________________________________________________________________
dense_129 (Dense)               (None, 20)           14020       input_1[0][0]                    
__________________________________________________________________________________________________
dense_132 (Dense)               (None, 20)           14020       input_1[0][0]                    
__________________________________________________________________________________________________
dense_135 (Dense)               (None, 20)           14020       input_1[0][0]                    
__________________________________________________________________________________________________
dense_138 (Dense)               (None, 20)           14020       input_1[0][0]                    
__________________________________________________________________________________________________
dense_141 (Dense)               (None, 20)           14020       input_1[0][0]                    
__________________________________________________________________________________________________
dense_144 (Dense)               (None, 20)           14020       input_1[0][0]                    
__________________________________________________________________________________________________
dense_147 (Dense)               (None, 20)           14020       input_1[0][0]                    
__________________________________________________________________________________________________
dense_150 (Dense)               (None, 20)           14020       input_1[0][0]                    
__________________________________________________________________________________________________
dense_153 (Dense)               (None, 20)           14020       input_1[0][0]                    
__________________________________________________________________________________________________
dense_156 (Dense)               (None, 20)           14020       input_1[0][0]                    
__________________________________________________________________________________________________
dense_159 (Dense)               (None, 20)           14020       input_1[0][0]                    
__________________________________________________________________________________________________
dense_162 (Dense)               (None, 20)           14020       input_1[0][0]                    
__________________________________________________________________________________________________
dense_165 (Dense)               (None, 20)           14020       input_1[0][0]                    
__________________________________________________________________________________________________
dense_168 (Dense)               (None, 20)           14020       input_1[0][0]                    
__________________________________________________________________________________________________
dense_171 (Dense)               (None, 20)           14020       input_1[0][0]                    
__________________________________________________________________________________________________
dense_174 (Dense)               (None, 20)           14020       input_1[0][0]                    
__________________________________________________________________________________________________
dense_177 (Dense)               (None, 20)           14020       input_1[0][0]                    
__________________________________________________________________________________________________
dense_180 (Dense)               (None, 20)           14020       input_1[0][0]                    
__________________________________________________________________________________________________
dense_183 (Dense)               (None, 20)           14020       input_1[0][0]                    
__________________________________________________________________________________________________
dense_186 (Dense)               (None, 20)           14020       input_1[0][0]                    
__________________________________________________________________________________________________
dense_189 (Dense)               (None, 20)           14020       input_1[0][0]                    
__________________________________________________________________________________________________
dense_192 (Dense)               (None, 20)           14020       input_1[0][0]                    
__________________________________________________________________________________________________
dense_195 (Dense)               (None, 20)           14020       input_1[0][0]                    
__________________________________________________________________________________________________
dense_198 (Dense)               (None, 20)           14020       input_1[0][0]                    
__________________________________________________________________________________________________
dense_201 (Dense)               (None, 20)           14020       input_1[0][0]                    
__________________________________________________________________________________________________
dense_204 (Dense)               (None, 20)           14020       input_1[0][0]                    
__________________________________________________________________________________________________
dense_207 (Dense)               (None, 20)           14020       input_1[0][0]                    
__________________________________________________________________________________________________
dense_210 (Dense)               (None, 20)           14020       input_1[0][0]                    
__________________________________________________________________________________________________
dense_213 (Dense)               (None, 20)           14020       input_1[0][0]                    
__________________________________________________________________________________________________
dense_216 (Dense)               (None, 20)           14020       input_1[0][0]                    
__________________________________________________________________________________________________
dense_219 (Dense)               (None, 20)           14020       input_1[0][0]                    
__________________________________________________________________________________________________
dense_222 (Dense)               (None, 20)           14020       input_1[0][0]                    
__________________________________________________________________________________________________
dense_225 (Dense)               (None, 20)           14020       input_1[0][0]                    
__________________________________________________________________________________________________
dense_228 (Dense)               (None, 20)           14020       input_1[0][0]                    
__________________________________________________________________________________________________
dense_231 (Dense)               (None, 20)           14020       input_1[0][0]                    
__________________________________________________________________________________________________
dense_234 (Dense)               (None, 20)           14020       input_1[0][0]                    
__________________________________________________________________________________________________
dense_237 (Dense)               (None, 20)           14020       input_1[0][0]                    
__________________________________________________________________________________________________
dense_240 (Dense)               (None, 20)           14020       input_1[0][0]                    
__________________________________________________________________________________________________
dense_243 (Dense)               (None, 20)           14020       input_1[0][0]                    
__________________________________________________________________________________________________
dense_246 (Dense)               (None, 20)           14020       input_1[0][0]                    
__________________________________________________________________________________________________
dense_249 (Dense)               (None, 20)           14020       input_1[0][0]                    
__________________________________________________________________________________________________
dense_252 (Dense)               (None, 20)           14020       input_1[0][0]                    
__________________________________________________________________________________________________
dense_255 (Dense)               (None, 20)           14020       input_1[0][0]                    
__________________________________________________________________________________________________
dense_258 (Dense)               (None, 20)           14020       input_1[0][0]                    
__________________________________________________________________________________________________
dense_261 (Dense)               (None, 20)           14020       input_1[0][0]                    
__________________________________________________________________________________________________
dense_264 (Dense)               (None, 20)           14020       input_1[0][0]                    
__________________________________________________________________________________________________
dense_267 (Dense)               (None, 20)           14020       input_1[0][0]                    
__________________________________________________________________________________________________
dense_270 (Dense)               (None, 20)           14020       input_1[0][0]                    
__________________________________________________________________________________________________
dense_273 (Dense)               (None, 20)           14020       input_1[0][0]                    
__________________________________________________________________________________________________
dense_276 (Dense)               (None, 20)           14020       input_1[0][0]                    
__________________________________________________________________________________________________
dense_279 (Dense)               (None, 20)           14020       input_1[0][0]                    
__________________________________________________________________________________________________
dense_282 (Dense)               (None, 20)           14020       input_1[0][0]                    
__________________________________________________________________________________________________
dense_285 (Dense)               (None, 20)           14020       input_1[0][0]                    
__________________________________________________________________________________________________
dense_288 (Dense)               (None, 20)           14020       input_1[0][0]                    
__________________________________________________________________________________________________
dense_291 (Dense)               (None, 20)           14020       input_1[0][0]                    
__________________________________________________________________________________________________
dense_294 (Dense)               (None, 20)           14020       input_1[0][0]                    
__________________________________________________________________________________________________
dense_297 (Dense)               (None, 20)           14020       input_1[0][0]                    
__________________________________________________________________________________________________
dense_300 (Dense)               (None, 20)           14020       input_1[0][0]                    
__________________________________________________________________________________________________
dense_303 (Dense)               (None, 20)           14020       input_1[0][0]                    
__________________________________________________________________________________________________
dense_306 (Dense)               (None, 20)           14020       input_1[0][0]                    
__________________________________________________________________________________________________
dense_309 (Dense)               (None, 20)           14020       input_1[0][0]                    
__________________________________________________________________________________________________
dense_312 (Dense)               (None, 20)           14020       input_1[0][0]                    
__________________________________________________________________________________________________
dense_315 (Dense)               (None, 20)           14020       input_1[0][0]                    
__________________________________________________________________________________________________
dense_318 (Dense)               (None, 20)           14020       input_1[0][0]                    
__________________________________________________________________________________________________
dense_321 (Dense)               (None, 20)           14020       input_1[0][0]                    
__________________________________________________________________________________________________
dense_324 (Dense)               (None, 20)           14020       input_1[0][0]                    
__________________________________________________________________________________________________
dense_327 (Dense)               (None, 20)           14020       input_1[0][0]                    
__________________________________________________________________________________________________
dense_330 (Dense)               (None, 20)           14020       input_1[0][0]                    
__________________________________________________________________________________________________
dense_333 (Dense)               (None, 20)           14020       input_1[0][0]                    
__________________________________________________________________________________________________
dense_336 (Dense)               (None, 20)           14020       input_1[0][0]                    
__________________________________________________________________________________________________
dense_339 (Dense)               (None, 20)           14020       input_1[0][0]                    
__________________________________________________________________________________________________
dense_342 (Dense)               (None, 20)           14020       input_1[0][0]                    
__________________________________________________________________________________________________
dense_345 (Dense)               (None, 20)           14020       input_1[0][0]                    
__________________________________________________________________________________________________
dense_348 (Dense)               (None, 20)           14020       input_1[0][0]                    
__________________________________________________________________________________________________
dense_351 (Dense)               (None, 20)           14020       input_1[0][0]                    
__________________________________________________________________________________________________
dense_354 (Dense)               (None, 20)           14020       input_1[0][0]                    
__________________________________________________________________________________________________
dense_357 (Dense)               (None, 20)           14020       input_1[0][0]                    
__________________________________________________________________________________________________
dense_360 (Dense)               (None, 20)           14020       input_1[0][0]                    
__________________________________________________________________________________________________
dense_363 (Dense)               (None, 20)           14020       input_1[0][0]                    
__________________________________________________________________________________________________
dense_366 (Dense)               (None, 20)           14020       input_1[0][0]                    
__________________________________________________________________________________________________
dense_369 (Dense)               (None, 20)           14020       input_1[0][0]                    
__________________________________________________________________________________________________
dense_372 (Dense)               (None, 20)           14020       input_1[0][0]                    
__________________________________________________________________________________________________
dense_375 (Dense)               (None, 20)           14020       input_1[0][0]                    
__________________________________________________________________________________________________
dense_378 (Dense)               (None, 20)           14020       input_1[0][0]                    
__________________________________________________________________________________________________
dense_381 (Dense)               (None, 20)           14020       input_1[0][0]                    
__________________________________________________________________________________________________
dense_384 (Dense)               (None, 20)           14020       input_1[0][0]                    
__________________________________________________________________________________________________
dense_387 (Dense)               (None, 20)           14020       input_1[0][0]                    
__________________________________________________________________________________________________
dense_390 (Dense)               (None, 20)           14020       input_1[0][0]                    
__________________________________________________________________________________________________
dense_393 (Dense)               (None, 20)           14020       input_1[0][0]                    
__________________________________________________________________________________________________
dense_396 (Dense)               (None, 20)           14020       input_1[0][0]                    
__________________________________________________________________________________________________
dense_399 (Dense)               (None, 20)           14020       input_1[0][0]                    
__________________________________________________________________________________________________
dense_402 (Dense)               (None, 20)           14020       input_1[0][0]                    
__________________________________________________________________________________________________
dense_405 (Dense)               (None, 20)           14020       input_1[0][0]                    
__________________________________________________________________________________________________
dense_408 (Dense)               (None, 20)           14020       input_1[0][0]                    
__________________________________________________________________________________________________
dense_411 (Dense)               (None, 20)           14020       input_1[0][0]                    
__________________________________________________________________________________________________
dense_414 (Dense)               (None, 20)           14020       input_1[0][0]                    
__________________________________________________________________________________________________
dense_417 (Dense)               (None, 20)           14020       input_1[0][0]                    
__________________________________________________________________________________________________
dense_420 (Dense)               (None, 20)           14020       input_1[0][0]                    
__________________________________________________________________________________________________
dense_423 (Dense)               (None, 20)           14020       input_1[0][0]                    
__________________________________________________________________________________________________
dense_426 (Dense)               (None, 20)           14020       input_1[0][0]                    
__________________________________________________________________________________________________
dense_429 (Dense)               (None, 20)           14020       input_1[0][0]                    
__________________________________________________________________________________________________
dense_432 (Dense)               (None, 20)           14020       input_1[0][0]                    
__________________________________________________________________________________________________
dense_435 (Dense)               (None, 20)           14020       input_1[0][0]                    
__________________________________________________________________________________________________
dense_438 (Dense)               (None, 20)           14020       input_1[0][0]                    
__________________________________________________________________________________________________
dense_441 (Dense)               (None, 20)           14020       input_1[0][0]                    
__________________________________________________________________________________________________
dense_444 (Dense)               (None, 20)           14020       input_1[0][0]                    
__________________________________________________________________________________________________
dense_447 (Dense)               (None, 20)           14020       input_1[0][0]                    
__________________________________________________________________________________________________
dense_450 (Dense)               (None, 20)           14020       input_1[0][0]                    
__________________________________________________________________________________________________
dense_453 (Dense)               (None, 20)           14020       input_1[0][0]                    
__________________________________________________________________________________________________
dense_456 (Dense)               (None, 20)           14020       input_1[0][0]                    
__________________________________________________________________________________________________
dense_459 (Dense)               (None, 20)           14020       input_1[0][0]                    
__________________________________________________________________________________________________
dense_462 (Dense)               (None, 20)           14020       input_1[0][0]                    
__________________________________________________________________________________________________
dense_465 (Dense)               (None, 20)           14020       input_1[0][0]                    
__________________________________________________________________________________________________
dense_468 (Dense)               (None, 20)           14020       input_1[0][0]                    
__________________________________________________________________________________________________
dense_471 (Dense)               (None, 20)           14020       input_1[0][0]                    
__________________________________________________________________________________________________
dense_474 (Dense)               (None, 20)           14020       input_1[0][0]                    
__________________________________________________________________________________________________
dense_477 (Dense)               (None, 20)           14020       input_1[0][0]                    
__________________________________________________________________________________________________
dense_480 (Dense)               (None, 20)           14020       input_1[0][0]                    
__________________________________________________________________________________________________
dense_483 (Dense)               (None, 20)           14020       input_1[0][0]                    
__________________________________________________________________________________________________
dense_486 (Dense)               (None, 20)           14020       input_1[0][0]                    
__________________________________________________________________________________________________
dense_489 (Dense)               (None, 20)           14020       input_1[0][0]                    
__________________________________________________________________________________________________
dense_492 (Dense)               (None, 20)           14020       input_1[0][0]                    
__________________________________________________________________________________________________
dense_495 (Dense)               (None, 20)           14020       input_1[0][0]                    
__________________________________________________________________________________________________
dense_498 (Dense)               (None, 20)           14020       input_1[0][0]                    
__________________________________________________________________________________________________
dense_501 (Dense)               (None, 20)           14020       input_1[0][0]                    
__________________________________________________________________________________________________
dense_504 (Dense)               (None, 20)           14020       input_1[0][0]                    
__________________________________________________________________________________________________
dense_507 (Dense)               (None, 20)           14020       input_1[0][0]                    
__________________________________________________________________________________________________
dense_510 (Dense)               (None, 20)           14020       input_1[0][0]                    
__________________________________________________________________________________________________
dense_513 (Dense)               (None, 20)           14020       input_1[0][0]                    
__________________________________________________________________________________________________
dense_516 (Dense)               (None, 20)           14020       input_1[0][0]                    
__________________________________________________________________________________________________
dense_519 (Dense)               (None, 20)           14020       input_1[0][0]                    
__________________________________________________________________________________________________
dense_522 (Dense)               (None, 20)           14020       input_1[0][0]                    
__________________________________________________________________________________________________
dense_525 (Dense)               (None, 20)           14020       input_1[0][0]                    
__________________________________________________________________________________________________
dense_528 (Dense)               (None, 20)           14020       input_1[0][0]                    
__________________________________________________________________________________________________
dense_531 (Dense)               (None, 20)           14020       input_1[0][0]                    
__________________________________________________________________________________________________
dense_534 (Dense)               (None, 20)           14020       input_1[0][0]                    
__________________________________________________________________________________________________
dense_537 (Dense)               (None, 20)           14020       input_1[0][0]                    
__________________________________________________________________________________________________
dense_540 (Dense)               (None, 20)           14020       input_1[0][0]                    
__________________________________________________________________________________________________
dense_543 (Dense)               (None, 20)           14020       input_1[0][0]                    
__________________________________________________________________________________________________
dense_546 (Dense)               (None, 20)           14020       input_1[0][0]                    
__________________________________________________________________________________________________
dense_549 (Dense)               (None, 20)           14020       input_1[0][0]                    
__________________________________________________________________________________________________
dense_552 (Dense)               (None, 20)           14020       input_1[0][0]                    
__________________________________________________________________________________________________
dense_555 (Dense)               (None, 20)           14020       input_1[0][0]                    
__________________________________________________________________________________________________
dense_558 (Dense)               (None, 20)           14020       input_1[0][0]                    
__________________________________________________________________________________________________
dense_561 (Dense)               (None, 20)           14020       input_1[0][0]                    
__________________________________________________________________________________________________
dense_564 (Dense)               (None, 20)           14020       input_1[0][0]                    
__________________________________________________________________________________________________
dense_567 (Dense)               (None, 20)           14020       input_1[0][0]                    
__________________________________________________________________________________________________
dense_570 (Dense)               (None, 20)           14020       input_1[0][0]                    
__________________________________________________________________________________________________
dense_573 (Dense)               (None, 20)           14020       input_1[0][0]                    
__________________________________________________________________________________________________
dense_576 (Dense)               (None, 20)           14020       input_1[0][0]                    
__________________________________________________________________________________________________
dense_579 (Dense)               (None, 20)           14020       input_1[0][0]                    
__________________________________________________________________________________________________
dense_582 (Dense)               (None, 20)           14020       input_1[0][0]                    
__________________________________________________________________________________________________
dense_585 (Dense)               (None, 20)           14020       input_1[0][0]                    
__________________________________________________________________________________________________
dense_588 (Dense)               (None, 20)           14020       input_1[0][0]                    
__________________________________________________________________________________________________
dense_591 (Dense)               (None, 20)           14020       input_1[0][0]                    
__________________________________________________________________________________________________
dense_594 (Dense)               (None, 20)           14020       input_1[0][0]                    
__________________________________________________________________________________________________
dense_597 (Dense)               (None, 20)           14020       input_1[0][0]                    
__________________________________________________________________________________________________
dense_600 (Dense)               (None, 20)           14020       input_1[0][0]                    
__________________________________________________________________________________________________
dense_603 (Dense)               (None, 20)           14020       input_1[0][0]                    
__________________________________________________________________________________________________
dense_606 (Dense)               (None, 20)           14020       input_1[0][0]                    
__________________________________________________________________________________________________
dense_609 (Dense)               (None, 20)           14020       input_1[0][0]                    
__________________________________________________________________________________________________
dense_612 (Dense)               (None, 20)           14020       input_1[0][0]                    
__________________________________________________________________________________________________
dense_615 (Dense)               (None, 20)           14020       input_1[0][0]                    
__________________________________________________________________________________________________
dense_618 (Dense)               (None, 20)           14020       input_1[0][0]                    
__________________________________________________________________________________________________
dense_621 (Dense)               (None, 20)           14020       input_1[0][0]                    
__________________________________________________________________________________________________
dense_624 (Dense)               (None, 20)           14020       input_1[0][0]                    
__________________________________________________________________________________________________
dense_627 (Dense)               (None, 20)           14020       input_1[0][0]                    
__________________________________________________________________________________________________
dense_630 (Dense)               (None, 20)           14020       input_1[0][0]                    
__________________________________________________________________________________________________
dense_633 (Dense)               (None, 20)           14020       input_1[0][0]                    
__________________________________________________________________________________________________
dense_636 (Dense)               (None, 20)           14020       input_1[0][0]                    
__________________________________________________________________________________________________
dense_639 (Dense)               (None, 20)           14020       input_1[0][0]                    
__________________________________________________________________________________________________
dense_642 (Dense)               (None, 20)           14020       input_1[0][0]                    
__________________________________________________________________________________________________
dense_645 (Dense)               (None, 20)           14020       input_1[0][0]                    
__________________________________________________________________________________________________
dense_648 (Dense)               (None, 20)           14020       input_1[0][0]                    
__________________________________________________________________________________________________
dense_651 (Dense)               (None, 20)           14020       input_1[0][0]                    
__________________________________________________________________________________________________
dense_654 (Dense)               (None, 20)           14020       input_1[0][0]                    
__________________________________________________________________________________________________
dense_657 (Dense)               (None, 20)           14020       input_1[0][0]                    
__________________________________________________________________________________________________
dense_660 (Dense)               (None, 20)           14020       input_1[0][0]                    
__________________________________________________________________________________________________
dense_663 (Dense)               (None, 20)           14020       input_1[0][0]                    
__________________________________________________________________________________________________
dense_666 (Dense)               (None, 20)           14020       input_1[0][0]                    
__________________________________________________________________________________________________
dense_669 (Dense)               (None, 20)           14020       input_1[0][0]                    
__________________________________________________________________________________________________
dense_672 (Dense)               (None, 20)           14020       input_1[0][0]                    
__________________________________________________________________________________________________
dense_675 (Dense)               (None, 20)           14020       input_1[0][0]                    
__________________________________________________________________________________________________
dense_678 (Dense)               (None, 20)           14020       input_1[0][0]                    
__________________________________________________________________________________________________
dense_681 (Dense)               (None, 20)           14020       input_1[0][0]                    
__________________________________________________________________________________________________
dense_684 (Dense)               (None, 20)           14020       input_1[0][0]                    
__________________________________________________________________________________________________
dense_687 (Dense)               (None, 20)           14020       input_1[0][0]                    
__________________________________________________________________________________________________
dense_690 (Dense)               (None, 20)           14020       input_1[0][0]                    
__________________________________________________________________________________________________
dense_693 (Dense)               (None, 20)           14020       input_1[0][0]                    
__________________________________________________________________________________________________
dense_696 (Dense)               (None, 20)           14020       input_1[0][0]                    
__________________________________________________________________________________________________
dense_699 (Dense)               (None, 20)           14020       input_1[0][0]                    
__________________________________________________________________________________________________
dense_702 (Dense)               (None, 20)           14020       input_1[0][0]                    
__________________________________________________________________________________________________
dense_705 (Dense)               (None, 20)           14020       input_1[0][0]                    
__________________________________________________________________________________________________
dense_708 (Dense)               (None, 20)           14020       input_1[0][0]                    
__________________________________________________________________________________________________
dense_711 (Dense)               (None, 20)           14020       input_1[0][0]                    
__________________________________________________________________________________________________
dense_714 (Dense)               (None, 20)           14020       input_1[0][0]                    
__________________________________________________________________________________________________
dense_717 (Dense)               (None, 20)           14020       input_1[0][0]                    
__________________________________________________________________________________________________
dense_720 (Dense)               (None, 20)           14020       input_1[0][0]                    
__________________________________________________________________________________________________
dense_723 (Dense)               (None, 20)           14020       input_1[0][0]                    
__________________________________________________________________________________________________
dense_726 (Dense)               (None, 20)           14020       input_1[0][0]                    
__________________________________________________________________________________________________
dense_729 (Dense)               (None, 20)           14020       input_1[0][0]                    
__________________________________________________________________________________________________
dense_732 (Dense)               (None, 20)           14020       input_1[0][0]                    
__________________________________________________________________________________________________
dense_735 (Dense)               (None, 20)           14020       input_1[0][0]                    
__________________________________________________________________________________________________
dense_738 (Dense)               (None, 20)           14020       input_1[0][0]                    
__________________________________________________________________________________________________
dense_741 (Dense)               (None, 20)           14020       input_1[0][0]                    
__________________________________________________________________________________________________
dense_744 (Dense)               (None, 20)           14020       input_1[0][0]                    
__________________________________________________________________________________________________
dense_747 (Dense)               (None, 20)           14020       input_1[0][0]                    
__________________________________________________________________________________________________
dense_750 (Dense)               (None, 20)           14020       input_1[0][0]                    
__________________________________________________________________________________________________
dense_753 (Dense)               (None, 20)           14020       input_1[0][0]                    
__________________________________________________________________________________________________
dense_756 (Dense)               (None, 20)           14020       input_1[0][0]                    
__________________________________________________________________________________________________
dense_759 (Dense)               (None, 20)           14020       input_1[0][0]                    
__________________________________________________________________________________________________
dense_762 (Dense)               (None, 20)           14020       input_1[0][0]                    
__________________________________________________________________________________________________
dense_765 (Dense)               (None, 20)           14020       input_1[0][0]                    
__________________________________________________________________________________________________
batch_normalization (BatchNorma (None, 20)           80          dense[0][0]                      
__________________________________________________________________________________________________
batch_normalization_2 (BatchNor (None, 20)           80          dense_3[0][0]                    
__________________________________________________________________________________________________
batch_normalization_4 (BatchNor (None, 20)           80          dense_6[0][0]                    
__________________________________________________________________________________________________
batch_normalization_6 (BatchNor (None, 20)           80          dense_9[0][0]                    
__________________________________________________________________________________________________
batch_normalization_8 (BatchNor (None, 20)           80          dense_12[0][0]                   
__________________________________________________________________________________________________
batch_normalization_10 (BatchNo (None, 20)           80          dense_15[0][0]                   
__________________________________________________________________________________________________
batch_normalization_12 (BatchNo (None, 20)           80          dense_18[0][0]                   
__________________________________________________________________________________________________
batch_normalization_14 (BatchNo (None, 20)           80          dense_21[0][0]                   
__________________________________________________________________________________________________
batch_normalization_16 (BatchNo (None, 20)           80          dense_24[0][0]                   
__________________________________________________________________________________________________
batch_normalization_18 (BatchNo (None, 20)           80          dense_27[0][0]                   
__________________________________________________________________________________________________
batch_normalization_20 (BatchNo (None, 20)           80          dense_30[0][0]                   
__________________________________________________________________________________________________
batch_normalization_22 (BatchNo (None, 20)           80          dense_33[0][0]                   
__________________________________________________________________________________________________
batch_normalization_24 (BatchNo (None, 20)           80          dense_36[0][0]                   
__________________________________________________________________________________________________
batch_normalization_26 (BatchNo (None, 20)           80          dense_39[0][0]                   
__________________________________________________________________________________________________
batch_normalization_28 (BatchNo (None, 20)           80          dense_42[0][0]                   
__________________________________________________________________________________________________
batch_normalization_30 (BatchNo (None, 20)           80          dense_45[0][0]                   
__________________________________________________________________________________________________
batch_normalization_32 (BatchNo (None, 20)           80          dense_48[0][0]                   
__________________________________________________________________________________________________
batch_normalization_34 (BatchNo (None, 20)           80          dense_51[0][0]                   
__________________________________________________________________________________________________
batch_normalization_36 (BatchNo (None, 20)           80          dense_54[0][0]                   
__________________________________________________________________________________________________
batch_normalization_38 (BatchNo (None, 20)           80          dense_57[0][0]                   
__________________________________________________________________________________________________
batch_normalization_40 (BatchNo (None, 20)           80          dense_60[0][0]                   
__________________________________________________________________________________________________
batch_normalization_42 (BatchNo (None, 20)           80          dense_63[0][0]                   
__________________________________________________________________________________________________
batch_normalization_44 (BatchNo (None, 20)           80          dense_66[0][0]                   
__________________________________________________________________________________________________
batch_normalization_46 (BatchNo (None, 20)           80          dense_69[0][0]                   
__________________________________________________________________________________________________
batch_normalization_48 (BatchNo (None, 20)           80          dense_72[0][0]                   
__________________________________________________________________________________________________
batch_normalization_50 (BatchNo (None, 20)           80          dense_75[0][0]                   
__________________________________________________________________________________________________
batch_normalization_52 (BatchNo (None, 20)           80          dense_78[0][0]                   
__________________________________________________________________________________________________
batch_normalization_54 (BatchNo (None, 20)           80          dense_81[0][0]                   
__________________________________________________________________________________________________
batch_normalization_56 (BatchNo (None, 20)           80          dense_84[0][0]                   
__________________________________________________________________________________________________
batch_normalization_58 (BatchNo (None, 20)           80          dense_87[0][0]                   
__________________________________________________________________________________________________
batch_normalization_60 (BatchNo (None, 20)           80          dense_90[0][0]                   
__________________________________________________________________________________________________
batch_normalization_62 (BatchNo (None, 20)           80          dense_93[0][0]                   
__________________________________________________________________________________________________
batch_normalization_64 (BatchNo (None, 20)           80          dense_96[0][0]                   
__________________________________________________________________________________________________
batch_normalization_66 (BatchNo (None, 20)           80          dense_99[0][0]                   
__________________________________________________________________________________________________
batch_normalization_68 (BatchNo (None, 20)           80          dense_102[0][0]                  
__________________________________________________________________________________________________
batch_normalization_70 (BatchNo (None, 20)           80          dense_105[0][0]                  
__________________________________________________________________________________________________
batch_normalization_72 (BatchNo (None, 20)           80          dense_108[0][0]                  
__________________________________________________________________________________________________
batch_normalization_74 (BatchNo (None, 20)           80          dense_111[0][0]                  
__________________________________________________________________________________________________
batch_normalization_76 (BatchNo (None, 20)           80          dense_114[0][0]                  
__________________________________________________________________________________________________
batch_normalization_78 (BatchNo (None, 20)           80          dense_117[0][0]                  
__________________________________________________________________________________________________
batch_normalization_80 (BatchNo (None, 20)           80          dense_120[0][0]                  
__________________________________________________________________________________________________
batch_normalization_82 (BatchNo (None, 20)           80          dense_123[0][0]                  
__________________________________________________________________________________________________
batch_normalization_84 (BatchNo (None, 20)           80          dense_126[0][0]                  
__________________________________________________________________________________________________
batch_normalization_86 (BatchNo (None, 20)           80          dense_129[0][0]                  
__________________________________________________________________________________________________
batch_normalization_88 (BatchNo (None, 20)           80          dense_132[0][0]                  
__________________________________________________________________________________________________
batch_normalization_90 (BatchNo (None, 20)           80          dense_135[0][0]                  
__________________________________________________________________________________________________
batch_normalization_92 (BatchNo (None, 20)           80          dense_138[0][0]                  
__________________________________________________________________________________________________
batch_normalization_94 (BatchNo (None, 20)           80          dense_141[0][0]                  
__________________________________________________________________________________________________
batch_normalization_96 (BatchNo (None, 20)           80          dense_144[0][0]                  
__________________________________________________________________________________________________
batch_normalization_98 (BatchNo (None, 20)           80          dense_147[0][0]                  
__________________________________________________________________________________________________
batch_normalization_100 (BatchN (None, 20)           80          dense_150[0][0]                  
__________________________________________________________________________________________________
batch_normalization_102 (BatchN (None, 20)           80          dense_153[0][0]                  
__________________________________________________________________________________________________
batch_normalization_104 (BatchN (None, 20)           80          dense_156[0][0]                  
__________________________________________________________________________________________________
batch_normalization_106 (BatchN (None, 20)           80          dense_159[0][0]                  
__________________________________________________________________________________________________
batch_normalization_108 (BatchN (None, 20)           80          dense_162[0][0]                  
__________________________________________________________________________________________________
batch_normalization_110 (BatchN (None, 20)           80          dense_165[0][0]                  
__________________________________________________________________________________________________
batch_normalization_112 (BatchN (None, 20)           80          dense_168[0][0]                  
__________________________________________________________________________________________________
batch_normalization_114 (BatchN (None, 20)           80          dense_171[0][0]                  
__________________________________________________________________________________________________
batch_normalization_116 (BatchN (None, 20)           80          dense_174[0][0]                  
__________________________________________________________________________________________________
batch_normalization_118 (BatchN (None, 20)           80          dense_177[0][0]                  
__________________________________________________________________________________________________
batch_normalization_120 (BatchN (None, 20)           80          dense_180[0][0]                  
__________________________________________________________________________________________________
batch_normalization_122 (BatchN (None, 20)           80          dense_183[0][0]                  
__________________________________________________________________________________________________
batch_normalization_124 (BatchN (None, 20)           80          dense_186[0][0]                  
__________________________________________________________________________________________________
batch_normalization_126 (BatchN (None, 20)           80          dense_189[0][0]                  
__________________________________________________________________________________________________
batch_normalization_128 (BatchN (None, 20)           80          dense_192[0][0]                  
__________________________________________________________________________________________________
batch_normalization_130 (BatchN (None, 20)           80          dense_195[0][0]                  
__________________________________________________________________________________________________
batch_normalization_132 (BatchN (None, 20)           80          dense_198[0][0]                  
__________________________________________________________________________________________________
batch_normalization_134 (BatchN (None, 20)           80          dense_201[0][0]                  
__________________________________________________________________________________________________
batch_normalization_136 (BatchN (None, 20)           80          dense_204[0][0]                  
__________________________________________________________________________________________________
batch_normalization_138 (BatchN (None, 20)           80          dense_207[0][0]                  
__________________________________________________________________________________________________
batch_normalization_140 (BatchN (None, 20)           80          dense_210[0][0]                  
__________________________________________________________________________________________________
batch_normalization_142 (BatchN (None, 20)           80          dense_213[0][0]                  
__________________________________________________________________________________________________
batch_normalization_144 (BatchN (None, 20)           80          dense_216[0][0]                  
__________________________________________________________________________________________________
batch_normalization_146 (BatchN (None, 20)           80          dense_219[0][0]                  
__________________________________________________________________________________________________
batch_normalization_148 (BatchN (None, 20)           80          dense_222[0][0]                  
__________________________________________________________________________________________________
batch_normalization_150 (BatchN (None, 20)           80          dense_225[0][0]                  
__________________________________________________________________________________________________
batch_normalization_152 (BatchN (None, 20)           80          dense_228[0][0]                  
__________________________________________________________________________________________________
batch_normalization_154 (BatchN (None, 20)           80          dense_231[0][0]                  
__________________________________________________________________________________________________
batch_normalization_156 (BatchN (None, 20)           80          dense_234[0][0]                  
__________________________________________________________________________________________________
batch_normalization_158 (BatchN (None, 20)           80          dense_237[0][0]                  
__________________________________________________________________________________________________
batch_normalization_160 (BatchN (None, 20)           80          dense_240[0][0]                  
__________________________________________________________________________________________________
batch_normalization_162 (BatchN (None, 20)           80          dense_243[0][0]                  
__________________________________________________________________________________________________
batch_normalization_164 (BatchN (None, 20)           80          dense_246[0][0]                  
__________________________________________________________________________________________________
batch_normalization_166 (BatchN (None, 20)           80          dense_249[0][0]                  
__________________________________________________________________________________________________
batch_normalization_168 (BatchN (None, 20)           80          dense_252[0][0]                  
__________________________________________________________________________________________________
batch_normalization_170 (BatchN (None, 20)           80          dense_255[0][0]                  
__________________________________________________________________________________________________
batch_normalization_172 (BatchN (None, 20)           80          dense_258[0][0]                  
__________________________________________________________________________________________________
batch_normalization_174 (BatchN (None, 20)           80          dense_261[0][0]                  
__________________________________________________________________________________________________
batch_normalization_176 (BatchN (None, 20)           80          dense_264[0][0]                  
__________________________________________________________________________________________________
batch_normalization_178 (BatchN (None, 20)           80          dense_267[0][0]                  
__________________________________________________________________________________________________
batch_normalization_180 (BatchN (None, 20)           80          dense_270[0][0]                  
__________________________________________________________________________________________________
batch_normalization_182 (BatchN (None, 20)           80          dense_273[0][0]                  
__________________________________________________________________________________________________
batch_normalization_184 (BatchN (None, 20)           80          dense_276[0][0]                  
__________________________________________________________________________________________________
batch_normalization_186 (BatchN (None, 20)           80          dense_279[0][0]                  
__________________________________________________________________________________________________
batch_normalization_188 (BatchN (None, 20)           80          dense_282[0][0]                  
__________________________________________________________________________________________________
batch_normalization_190 (BatchN (None, 20)           80          dense_285[0][0]                  
__________________________________________________________________________________________________
batch_normalization_192 (BatchN (None, 20)           80          dense_288[0][0]                  
__________________________________________________________________________________________________
batch_normalization_194 (BatchN (None, 20)           80          dense_291[0][0]                  
__________________________________________________________________________________________________
batch_normalization_196 (BatchN (None, 20)           80          dense_294[0][0]                  
__________________________________________________________________________________________________
batch_normalization_198 (BatchN (None, 20)           80          dense_297[0][0]                  
__________________________________________________________________________________________________
batch_normalization_200 (BatchN (None, 20)           80          dense_300[0][0]                  
__________________________________________________________________________________________________
batch_normalization_202 (BatchN (None, 20)           80          dense_303[0][0]                  
__________________________________________________________________________________________________
batch_normalization_204 (BatchN (None, 20)           80          dense_306[0][0]                  
__________________________________________________________________________________________________
batch_normalization_206 (BatchN (None, 20)           80          dense_309[0][0]                  
__________________________________________________________________________________________________
batch_normalization_208 (BatchN (None, 20)           80          dense_312[0][0]                  
__________________________________________________________________________________________________
batch_normalization_210 (BatchN (None, 20)           80          dense_315[0][0]                  
__________________________________________________________________________________________________
batch_normalization_212 (BatchN (None, 20)           80          dense_318[0][0]                  
__________________________________________________________________________________________________
batch_normalization_214 (BatchN (None, 20)           80          dense_321[0][0]                  
__________________________________________________________________________________________________
batch_normalization_216 (BatchN (None, 20)           80          dense_324[0][0]                  
__________________________________________________________________________________________________
batch_normalization_218 (BatchN (None, 20)           80          dense_327[0][0]                  
__________________________________________________________________________________________________
batch_normalization_220 (BatchN (None, 20)           80          dense_330[0][0]                  
__________________________________________________________________________________________________
batch_normalization_222 (BatchN (None, 20)           80          dense_333[0][0]                  
__________________________________________________________________________________________________
batch_normalization_224 (BatchN (None, 20)           80          dense_336[0][0]                  
__________________________________________________________________________________________________
batch_normalization_226 (BatchN (None, 20)           80          dense_339[0][0]                  
__________________________________________________________________________________________________
batch_normalization_228 (BatchN (None, 20)           80          dense_342[0][0]                  
__________________________________________________________________________________________________
batch_normalization_230 (BatchN (None, 20)           80          dense_345[0][0]                  
__________________________________________________________________________________________________
batch_normalization_232 (BatchN (None, 20)           80          dense_348[0][0]                  
__________________________________________________________________________________________________
batch_normalization_234 (BatchN (None, 20)           80          dense_351[0][0]                  
__________________________________________________________________________________________________
batch_normalization_236 (BatchN (None, 20)           80          dense_354[0][0]                  
__________________________________________________________________________________________________
batch_normalization_238 (BatchN (None, 20)           80          dense_357[0][0]                  
__________________________________________________________________________________________________
batch_normalization_240 (BatchN (None, 20)           80          dense_360[0][0]                  
__________________________________________________________________________________________________
batch_normalization_242 (BatchN (None, 20)           80          dense_363[0][0]                  
__________________________________________________________________________________________________
batch_normalization_244 (BatchN (None, 20)           80          dense_366[0][0]                  
__________________________________________________________________________________________________
batch_normalization_246 (BatchN (None, 20)           80          dense_369[0][0]                  
__________________________________________________________________________________________________
batch_normalization_248 (BatchN (None, 20)           80          dense_372[0][0]                  
__________________________________________________________________________________________________
batch_normalization_250 (BatchN (None, 20)           80          dense_375[0][0]                  
__________________________________________________________________________________________________
batch_normalization_252 (BatchN (None, 20)           80          dense_378[0][0]                  
__________________________________________________________________________________________________
batch_normalization_254 (BatchN (None, 20)           80          dense_381[0][0]                  
__________________________________________________________________________________________________
batch_normalization_256 (BatchN (None, 20)           80          dense_384[0][0]                  
__________________________________________________________________________________________________
batch_normalization_258 (BatchN (None, 20)           80          dense_387[0][0]                  
__________________________________________________________________________________________________
batch_normalization_260 (BatchN (None, 20)           80          dense_390[0][0]                  
__________________________________________________________________________________________________
batch_normalization_262 (BatchN (None, 20)           80          dense_393[0][0]                  
__________________________________________________________________________________________________
batch_normalization_264 (BatchN (None, 20)           80          dense_396[0][0]                  
__________________________________________________________________________________________________
batch_normalization_266 (BatchN (None, 20)           80          dense_399[0][0]                  
__________________________________________________________________________________________________
batch_normalization_268 (BatchN (None, 20)           80          dense_402[0][0]                  
__________________________________________________________________________________________________
batch_normalization_270 (BatchN (None, 20)           80          dense_405[0][0]                  
__________________________________________________________________________________________________
batch_normalization_272 (BatchN (None, 20)           80          dense_408[0][0]                  
__________________________________________________________________________________________________
batch_normalization_274 (BatchN (None, 20)           80          dense_411[0][0]                  
__________________________________________________________________________________________________
batch_normalization_276 (BatchN (None, 20)           80          dense_414[0][0]                  
__________________________________________________________________________________________________
batch_normalization_278 (BatchN (None, 20)           80          dense_417[0][0]                  
__________________________________________________________________________________________________
batch_normalization_280 (BatchN (None, 20)           80          dense_420[0][0]                  
__________________________________________________________________________________________________
batch_normalization_282 (BatchN (None, 20)           80          dense_423[0][0]                  
__________________________________________________________________________________________________
batch_normalization_284 (BatchN (None, 20)           80          dense_426[0][0]                  
__________________________________________________________________________________________________
batch_normalization_286 (BatchN (None, 20)           80          dense_429[0][0]                  
__________________________________________________________________________________________________
batch_normalization_288 (BatchN (None, 20)           80          dense_432[0][0]                  
__________________________________________________________________________________________________
batch_normalization_290 (BatchN (None, 20)           80          dense_435[0][0]                  
__________________________________________________________________________________________________
batch_normalization_292 (BatchN (None, 20)           80          dense_438[0][0]                  
__________________________________________________________________________________________________
batch_normalization_294 (BatchN (None, 20)           80          dense_441[0][0]                  
__________________________________________________________________________________________________
batch_normalization_296 (BatchN (None, 20)           80          dense_444[0][0]                  
__________________________________________________________________________________________________
batch_normalization_298 (BatchN (None, 20)           80          dense_447[0][0]                  
__________________________________________________________________________________________________
batch_normalization_300 (BatchN (None, 20)           80          dense_450[0][0]                  
__________________________________________________________________________________________________
batch_normalization_302 (BatchN (None, 20)           80          dense_453[0][0]                  
__________________________________________________________________________________________________
batch_normalization_304 (BatchN (None, 20)           80          dense_456[0][0]                  
__________________________________________________________________________________________________
batch_normalization_306 (BatchN (None, 20)           80          dense_459[0][0]                  
__________________________________________________________________________________________________
batch_normalization_308 (BatchN (None, 20)           80          dense_462[0][0]                  
__________________________________________________________________________________________________
batch_normalization_310 (BatchN (None, 20)           80          dense_465[0][0]                  
__________________________________________________________________________________________________
batch_normalization_312 (BatchN (None, 20)           80          dense_468[0][0]                  
__________________________________________________________________________________________________
batch_normalization_314 (BatchN (None, 20)           80          dense_471[0][0]                  
__________________________________________________________________________________________________
batch_normalization_316 (BatchN (None, 20)           80          dense_474[0][0]                  
__________________________________________________________________________________________________
batch_normalization_318 (BatchN (None, 20)           80          dense_477[0][0]                  
__________________________________________________________________________________________________
batch_normalization_320 (BatchN (None, 20)           80          dense_480[0][0]                  
__________________________________________________________________________________________________
batch_normalization_322 (BatchN (None, 20)           80          dense_483[0][0]                  
__________________________________________________________________________________________________
batch_normalization_324 (BatchN (None, 20)           80          dense_486[0][0]                  
__________________________________________________________________________________________________
batch_normalization_326 (BatchN (None, 20)           80          dense_489[0][0]                  
__________________________________________________________________________________________________
batch_normalization_328 (BatchN (None, 20)           80          dense_492[0][0]                  
__________________________________________________________________________________________________
batch_normalization_330 (BatchN (None, 20)           80          dense_495[0][0]                  
__________________________________________________________________________________________________
batch_normalization_332 (BatchN (None, 20)           80          dense_498[0][0]                  
__________________________________________________________________________________________________
batch_normalization_334 (BatchN (None, 20)           80          dense_501[0][0]                  
__________________________________________________________________________________________________
batch_normalization_336 (BatchN (None, 20)           80          dense_504[0][0]                  
__________________________________________________________________________________________________
batch_normalization_338 (BatchN (None, 20)           80          dense_507[0][0]                  
__________________________________________________________________________________________________
batch_normalization_340 (BatchN (None, 20)           80          dense_510[0][0]                  
__________________________________________________________________________________________________
batch_normalization_342 (BatchN (None, 20)           80          dense_513[0][0]                  
__________________________________________________________________________________________________
batch_normalization_344 (BatchN (None, 20)           80          dense_516[0][0]                  
__________________________________________________________________________________________________
batch_normalization_346 (BatchN (None, 20)           80          dense_519[0][0]                  
__________________________________________________________________________________________________
batch_normalization_348 (BatchN (None, 20)           80          dense_522[0][0]                  
__________________________________________________________________________________________________
batch_normalization_350 (BatchN (None, 20)           80          dense_525[0][0]                  
__________________________________________________________________________________________________
batch_normalization_352 (BatchN (None, 20)           80          dense_528[0][0]                  
__________________________________________________________________________________________________
batch_normalization_354 (BatchN (None, 20)           80          dense_531[0][0]                  
__________________________________________________________________________________________________
batch_normalization_356 (BatchN (None, 20)           80          dense_534[0][0]                  
__________________________________________________________________________________________________
batch_normalization_358 (BatchN (None, 20)           80          dense_537[0][0]                  
__________________________________________________________________________________________________
batch_normalization_360 (BatchN (None, 20)           80          dense_540[0][0]                  
__________________________________________________________________________________________________
batch_normalization_362 (BatchN (None, 20)           80          dense_543[0][0]                  
__________________________________________________________________________________________________
batch_normalization_364 (BatchN (None, 20)           80          dense_546[0][0]                  
__________________________________________________________________________________________________
batch_normalization_366 (BatchN (None, 20)           80          dense_549[0][0]                  
__________________________________________________________________________________________________
batch_normalization_368 (BatchN (None, 20)           80          dense_552[0][0]                  
__________________________________________________________________________________________________
batch_normalization_370 (BatchN (None, 20)           80          dense_555[0][0]                  
__________________________________________________________________________________________________
batch_normalization_372 (BatchN (None, 20)           80          dense_558[0][0]                  
__________________________________________________________________________________________________
batch_normalization_374 (BatchN (None, 20)           80          dense_561[0][0]                  
__________________________________________________________________________________________________
batch_normalization_376 (BatchN (None, 20)           80          dense_564[0][0]                  
__________________________________________________________________________________________________
batch_normalization_378 (BatchN (None, 20)           80          dense_567[0][0]                  
__________________________________________________________________________________________________
batch_normalization_380 (BatchN (None, 20)           80          dense_570[0][0]                  
__________________________________________________________________________________________________
batch_normalization_382 (BatchN (None, 20)           80          dense_573[0][0]                  
__________________________________________________________________________________________________
batch_normalization_384 (BatchN (None, 20)           80          dense_576[0][0]                  
__________________________________________________________________________________________________
batch_normalization_386 (BatchN (None, 20)           80          dense_579[0][0]                  
__________________________________________________________________________________________________
batch_normalization_388 (BatchN (None, 20)           80          dense_582[0][0]                  
__________________________________________________________________________________________________
batch_normalization_390 (BatchN (None, 20)           80          dense_585[0][0]                  
__________________________________________________________________________________________________
batch_normalization_392 (BatchN (None, 20)           80          dense_588[0][0]                  
__________________________________________________________________________________________________
batch_normalization_394 (BatchN (None, 20)           80          dense_591[0][0]                  
__________________________________________________________________________________________________
batch_normalization_396 (BatchN (None, 20)           80          dense_594[0][0]                  
__________________________________________________________________________________________________
batch_normalization_398 (BatchN (None, 20)           80          dense_597[0][0]                  
__________________________________________________________________________________________________
batch_normalization_400 (BatchN (None, 20)           80          dense_600[0][0]                  
__________________________________________________________________________________________________
batch_normalization_402 (BatchN (None, 20)           80          dense_603[0][0]                  
__________________________________________________________________________________________________
batch_normalization_404 (BatchN (None, 20)           80          dense_606[0][0]                  
__________________________________________________________________________________________________
batch_normalization_406 (BatchN (None, 20)           80          dense_609[0][0]                  
__________________________________________________________________________________________________
batch_normalization_408 (BatchN (None, 20)           80          dense_612[0][0]                  
__________________________________________________________________________________________________
batch_normalization_410 (BatchN (None, 20)           80          dense_615[0][0]                  
__________________________________________________________________________________________________
batch_normalization_412 (BatchN (None, 20)           80          dense_618[0][0]                  
__________________________________________________________________________________________________
batch_normalization_414 (BatchN (None, 20)           80          dense_621[0][0]                  
__________________________________________________________________________________________________
batch_normalization_416 (BatchN (None, 20)           80          dense_624[0][0]                  
__________________________________________________________________________________________________
batch_normalization_418 (BatchN (None, 20)           80          dense_627[0][0]                  
__________________________________________________________________________________________________
batch_normalization_420 (BatchN (None, 20)           80          dense_630[0][0]                  
__________________________________________________________________________________________________
batch_normalization_422 (BatchN (None, 20)           80          dense_633[0][0]                  
__________________________________________________________________________________________________
batch_normalization_424 (BatchN (None, 20)           80          dense_636[0][0]                  
__________________________________________________________________________________________________
batch_normalization_426 (BatchN (None, 20)           80          dense_639[0][0]                  
__________________________________________________________________________________________________
batch_normalization_428 (BatchN (None, 20)           80          dense_642[0][0]                  
__________________________________________________________________________________________________
batch_normalization_430 (BatchN (None, 20)           80          dense_645[0][0]                  
__________________________________________________________________________________________________
batch_normalization_432 (BatchN (None, 20)           80          dense_648[0][0]                  
__________________________________________________________________________________________________
batch_normalization_434 (BatchN (None, 20)           80          dense_651[0][0]                  
__________________________________________________________________________________________________
batch_normalization_436 (BatchN (None, 20)           80          dense_654[0][0]                  
__________________________________________________________________________________________________
batch_normalization_438 (BatchN (None, 20)           80          dense_657[0][0]                  
__________________________________________________________________________________________________
batch_normalization_440 (BatchN (None, 20)           80          dense_660[0][0]                  
__________________________________________________________________________________________________
batch_normalization_442 (BatchN (None, 20)           80          dense_663[0][0]                  
__________________________________________________________________________________________________
batch_normalization_444 (BatchN (None, 20)           80          dense_666[0][0]                  
__________________________________________________________________________________________________
batch_normalization_446 (BatchN (None, 20)           80          dense_669[0][0]                  
__________________________________________________________________________________________________
batch_normalization_448 (BatchN (None, 20)           80          dense_672[0][0]                  
__________________________________________________________________________________________________
batch_normalization_450 (BatchN (None, 20)           80          dense_675[0][0]                  
__________________________________________________________________________________________________
batch_normalization_452 (BatchN (None, 20)           80          dense_678[0][0]                  
__________________________________________________________________________________________________
batch_normalization_454 (BatchN (None, 20)           80          dense_681[0][0]                  
__________________________________________________________________________________________________
batch_normalization_456 (BatchN (None, 20)           80          dense_684[0][0]                  
__________________________________________________________________________________________________
batch_normalization_458 (BatchN (None, 20)           80          dense_687[0][0]                  
__________________________________________________________________________________________________
batch_normalization_460 (BatchN (None, 20)           80          dense_690[0][0]                  
__________________________________________________________________________________________________
batch_normalization_462 (BatchN (None, 20)           80          dense_693[0][0]                  
__________________________________________________________________________________________________
batch_normalization_464 (BatchN (None, 20)           80          dense_696[0][0]                  
__________________________________________________________________________________________________
batch_normalization_466 (BatchN (None, 20)           80          dense_699[0][0]                  
__________________________________________________________________________________________________
batch_normalization_468 (BatchN (None, 20)           80          dense_702[0][0]                  
__________________________________________________________________________________________________
batch_normalization_470 (BatchN (None, 20)           80          dense_705[0][0]                  
__________________________________________________________________________________________________
batch_normalization_472 (BatchN (None, 20)           80          dense_708[0][0]                  
__________________________________________________________________________________________________
batch_normalization_474 (BatchN (None, 20)           80          dense_711[0][0]                  
__________________________________________________________________________________________________
batch_normalization_476 (BatchN (None, 20)           80          dense_714[0][0]                  
__________________________________________________________________________________________________
batch_normalization_478 (BatchN (None, 20)           80          dense_717[0][0]                  
__________________________________________________________________________________________________
batch_normalization_480 (BatchN (None, 20)           80          dense_720[0][0]                  
__________________________________________________________________________________________________
batch_normalization_482 (BatchN (None, 20)           80          dense_723[0][0]                  
__________________________________________________________________________________________________
batch_normalization_484 (BatchN (None, 20)           80          dense_726[0][0]                  
__________________________________________________________________________________________________
batch_normalization_486 (BatchN (None, 20)           80          dense_729[0][0]                  
__________________________________________________________________________________________________
batch_normalization_488 (BatchN (None, 20)           80          dense_732[0][0]                  
__________________________________________________________________________________________________
batch_normalization_490 (BatchN (None, 20)           80          dense_735[0][0]                  
__________________________________________________________________________________________________
batch_normalization_492 (BatchN (None, 20)           80          dense_738[0][0]                  
__________________________________________________________________________________________________
batch_normalization_494 (BatchN (None, 20)           80          dense_741[0][0]                  
__________________________________________________________________________________________________
batch_normalization_496 (BatchN (None, 20)           80          dense_744[0][0]                  
__________________________________________________________________________________________________
batch_normalization_498 (BatchN (None, 20)           80          dense_747[0][0]                  
__________________________________________________________________________________________________
batch_normalization_500 (BatchN (None, 20)           80          dense_750[0][0]                  
__________________________________________________________________________________________________
batch_normalization_502 (BatchN (None, 20)           80          dense_753[0][0]                  
__________________________________________________________________________________________________
batch_normalization_504 (BatchN (None, 20)           80          dense_756[0][0]                  
__________________________________________________________________________________________________
batch_normalization_506 (BatchN (None, 20)           80          dense_759[0][0]                  
__________________________________________________________________________________________________
batch_normalization_508 (BatchN (None, 20)           80          dense_762[0][0]                  
__________________________________________________________________________________________________
batch_normalization_510 (BatchN (None, 20)           80          dense_765[0][0]                  
__________________________________________________________________________________________________
dense_1 (Dense)                 (None, 10)           210         batch_normalization[0][0]        
__________________________________________________________________________________________________
dense_4 (Dense)                 (None, 10)           210         batch_normalization_2[0][0]      
__________________________________________________________________________________________________
dense_7 (Dense)                 (None, 10)           210         batch_normalization_4[0][0]      
__________________________________________________________________________________________________
dense_10 (Dense)                (None, 10)           210         batch_normalization_6[0][0]      
__________________________________________________________________________________________________
dense_13 (Dense)                (None, 10)           210         batch_normalization_8[0][0]      
__________________________________________________________________________________________________
dense_16 (Dense)                (None, 10)           210         batch_normalization_10[0][0]     
__________________________________________________________________________________________________
dense_19 (Dense)                (None, 10)           210         batch_normalization_12[0][0]     
__________________________________________________________________________________________________
dense_22 (Dense)                (None, 10)           210         batch_normalization_14[0][0]     
__________________________________________________________________________________________________
dense_25 (Dense)                (None, 10)           210         batch_normalization_16[0][0]     
__________________________________________________________________________________________________
dense_28 (Dense)                (None, 10)           210         batch_normalization_18[0][0]     
__________________________________________________________________________________________________
dense_31 (Dense)                (None, 10)           210         batch_normalization_20[0][0]     
__________________________________________________________________________________________________
dense_34 (Dense)                (None, 10)           210         batch_normalization_22[0][0]     
__________________________________________________________________________________________________
dense_37 (Dense)                (None, 10)           210         batch_normalization_24[0][0]     
__________________________________________________________________________________________________
dense_40 (Dense)                (None, 10)           210         batch_normalization_26[0][0]     
__________________________________________________________________________________________________
dense_43 (Dense)                (None, 10)           210         batch_normalization_28[0][0]     
__________________________________________________________________________________________________
dense_46 (Dense)                (None, 10)           210         batch_normalization_30[0][0]     
__________________________________________________________________________________________________
dense_49 (Dense)                (None, 10)           210         batch_normalization_32[0][0]     
__________________________________________________________________________________________________
dense_52 (Dense)                (None, 10)           210         batch_normalization_34[0][0]     
__________________________________________________________________________________________________
dense_55 (Dense)                (None, 10)           210         batch_normalization_36[0][0]     
__________________________________________________________________________________________________
dense_58 (Dense)                (None, 10)           210         batch_normalization_38[0][0]     
__________________________________________________________________________________________________
dense_61 (Dense)                (None, 10)           210         batch_normalization_40[0][0]     
__________________________________________________________________________________________________
dense_64 (Dense)                (None, 10)           210         batch_normalization_42[0][0]     
__________________________________________________________________________________________________
dense_67 (Dense)                (None, 10)           210         batch_normalization_44[0][0]     
__________________________________________________________________________________________________
dense_70 (Dense)                (None, 10)           210         batch_normalization_46[0][0]     
__________________________________________________________________________________________________
dense_73 (Dense)                (None, 10)           210         batch_normalization_48[0][0]     
__________________________________________________________________________________________________
dense_76 (Dense)                (None, 10)           210         batch_normalization_50[0][0]     
__________________________________________________________________________________________________
dense_79 (Dense)                (None, 10)           210         batch_normalization_52[0][0]     
__________________________________________________________________________________________________
dense_82 (Dense)                (None, 10)           210         batch_normalization_54[0][0]     
__________________________________________________________________________________________________
dense_85 (Dense)                (None, 10)           210         batch_normalization_56[0][0]     
__________________________________________________________________________________________________
dense_88 (Dense)                (None, 10)           210         batch_normalization_58[0][0]     
__________________________________________________________________________________________________
dense_91 (Dense)                (None, 10)           210         batch_normalization_60[0][0]     
__________________________________________________________________________________________________
dense_94 (Dense)                (None, 10)           210         batch_normalization_62[0][0]     
__________________________________________________________________________________________________
dense_97 (Dense)                (None, 10)           210         batch_normalization_64[0][0]     
__________________________________________________________________________________________________
dense_100 (Dense)               (None, 10)           210         batch_normalization_66[0][0]     
__________________________________________________________________________________________________
dense_103 (Dense)               (None, 10)           210         batch_normalization_68[0][0]     
__________________________________________________________________________________________________
dense_106 (Dense)               (None, 10)           210         batch_normalization_70[0][0]     
__________________________________________________________________________________________________
dense_109 (Dense)               (None, 10)           210         batch_normalization_72[0][0]     
__________________________________________________________________________________________________
dense_112 (Dense)               (None, 10)           210         batch_normalization_74[0][0]     
__________________________________________________________________________________________________
dense_115 (Dense)               (None, 10)           210         batch_normalization_76[0][0]     
__________________________________________________________________________________________________
dense_118 (Dense)               (None, 10)           210         batch_normalization_78[0][0]     
__________________________________________________________________________________________________
dense_121 (Dense)               (None, 10)           210         batch_normalization_80[0][0]     
__________________________________________________________________________________________________
dense_124 (Dense)               (None, 10)           210         batch_normalization_82[0][0]     
__________________________________________________________________________________________________
dense_127 (Dense)               (None, 10)           210         batch_normalization_84[0][0]     
__________________________________________________________________________________________________
dense_130 (Dense)               (None, 10)           210         batch_normalization_86[0][0]     
__________________________________________________________________________________________________
dense_133 (Dense)               (None, 10)           210         batch_normalization_88[0][0]     
__________________________________________________________________________________________________
dense_136 (Dense)               (None, 10)           210         batch_normalization_90[0][0]     
__________________________________________________________________________________________________
dense_139 (Dense)               (None, 10)           210         batch_normalization_92[0][0]     
__________________________________________________________________________________________________
dense_142 (Dense)               (None, 10)           210         batch_normalization_94[0][0]     
__________________________________________________________________________________________________
dense_145 (Dense)               (None, 10)           210         batch_normalization_96[0][0]     
__________________________________________________________________________________________________
dense_148 (Dense)               (None, 10)           210         batch_normalization_98[0][0]     
__________________________________________________________________________________________________
dense_151 (Dense)               (None, 10)           210         batch_normalization_100[0][0]    
__________________________________________________________________________________________________
dense_154 (Dense)               (None, 10)           210         batch_normalization_102[0][0]    
__________________________________________________________________________________________________
dense_157 (Dense)               (None, 10)           210         batch_normalization_104[0][0]    
__________________________________________________________________________________________________
dense_160 (Dense)               (None, 10)           210         batch_normalization_106[0][0]    
__________________________________________________________________________________________________
dense_163 (Dense)               (None, 10)           210         batch_normalization_108[0][0]    
__________________________________________________________________________________________________
dense_166 (Dense)               (None, 10)           210         batch_normalization_110[0][0]    
__________________________________________________________________________________________________
dense_169 (Dense)               (None, 10)           210         batch_normalization_112[0][0]    
__________________________________________________________________________________________________
dense_172 (Dense)               (None, 10)           210         batch_normalization_114[0][0]    
__________________________________________________________________________________________________
dense_175 (Dense)               (None, 10)           210         batch_normalization_116[0][0]    
__________________________________________________________________________________________________
dense_178 (Dense)               (None, 10)           210         batch_normalization_118[0][0]    
__________________________________________________________________________________________________
dense_181 (Dense)               (None, 10)           210         batch_normalization_120[0][0]    
__________________________________________________________________________________________________
dense_184 (Dense)               (None, 10)           210         batch_normalization_122[0][0]    
__________________________________________________________________________________________________
dense_187 (Dense)               (None, 10)           210         batch_normalization_124[0][0]    
__________________________________________________________________________________________________
dense_190 (Dense)               (None, 10)           210         batch_normalization_126[0][0]    
__________________________________________________________________________________________________
dense_193 (Dense)               (None, 10)           210         batch_normalization_128[0][0]    
__________________________________________________________________________________________________
dense_196 (Dense)               (None, 10)           210         batch_normalization_130[0][0]    
__________________________________________________________________________________________________
dense_199 (Dense)               (None, 10)           210         batch_normalization_132[0][0]    
__________________________________________________________________________________________________
dense_202 (Dense)               (None, 10)           210         batch_normalization_134[0][0]    
__________________________________________________________________________________________________
dense_205 (Dense)               (None, 10)           210         batch_normalization_136[0][0]    
__________________________________________________________________________________________________
dense_208 (Dense)               (None, 10)           210         batch_normalization_138[0][0]    
__________________________________________________________________________________________________
dense_211 (Dense)               (None, 10)           210         batch_normalization_140[0][0]    
__________________________________________________________________________________________________
dense_214 (Dense)               (None, 10)           210         batch_normalization_142[0][0]    
__________________________________________________________________________________________________
dense_217 (Dense)               (None, 10)           210         batch_normalization_144[0][0]    
__________________________________________________________________________________________________
dense_220 (Dense)               (None, 10)           210         batch_normalization_146[0][0]    
__________________________________________________________________________________________________
dense_223 (Dense)               (None, 10)           210         batch_normalization_148[0][0]    
__________________________________________________________________________________________________
dense_226 (Dense)               (None, 10)           210         batch_normalization_150[0][0]    
__________________________________________________________________________________________________
dense_229 (Dense)               (None, 10)           210         batch_normalization_152[0][0]    
__________________________________________________________________________________________________
dense_232 (Dense)               (None, 10)           210         batch_normalization_154[0][0]    
__________________________________________________________________________________________________
dense_235 (Dense)               (None, 10)           210         batch_normalization_156[0][0]    
__________________________________________________________________________________________________
dense_238 (Dense)               (None, 10)           210         batch_normalization_158[0][0]    
__________________________________________________________________________________________________
dense_241 (Dense)               (None, 10)           210         batch_normalization_160[0][0]    
__________________________________________________________________________________________________
dense_244 (Dense)               (None, 10)           210         batch_normalization_162[0][0]    
__________________________________________________________________________________________________
dense_247 (Dense)               (None, 10)           210         batch_normalization_164[0][0]    
__________________________________________________________________________________________________
dense_250 (Dense)               (None, 10)           210         batch_normalization_166[0][0]    
__________________________________________________________________________________________________
dense_253 (Dense)               (None, 10)           210         batch_normalization_168[0][0]    
__________________________________________________________________________________________________
dense_256 (Dense)               (None, 10)           210         batch_normalization_170[0][0]    
__________________________________________________________________________________________________
dense_259 (Dense)               (None, 10)           210         batch_normalization_172[0][0]    
__________________________________________________________________________________________________
dense_262 (Dense)               (None, 10)           210         batch_normalization_174[0][0]    
__________________________________________________________________________________________________
dense_265 (Dense)               (None, 10)           210         batch_normalization_176[0][0]    
__________________________________________________________________________________________________
dense_268 (Dense)               (None, 10)           210         batch_normalization_178[0][0]    
__________________________________________________________________________________________________
dense_271 (Dense)               (None, 10)           210         batch_normalization_180[0][0]    
__________________________________________________________________________________________________
dense_274 (Dense)               (None, 10)           210         batch_normalization_182[0][0]    
__________________________________________________________________________________________________
dense_277 (Dense)               (None, 10)           210         batch_normalization_184[0][0]    
__________________________________________________________________________________________________
dense_280 (Dense)               (None, 10)           210         batch_normalization_186[0][0]    
__________________________________________________________________________________________________
dense_283 (Dense)               (None, 10)           210         batch_normalization_188[0][0]    
__________________________________________________________________________________________________
dense_286 (Dense)               (None, 10)           210         batch_normalization_190[0][0]    
__________________________________________________________________________________________________
dense_289 (Dense)               (None, 10)           210         batch_normalization_192[0][0]    
__________________________________________________________________________________________________
dense_292 (Dense)               (None, 10)           210         batch_normalization_194[0][0]    
__________________________________________________________________________________________________
dense_295 (Dense)               (None, 10)           210         batch_normalization_196[0][0]    
__________________________________________________________________________________________________
dense_298 (Dense)               (None, 10)           210         batch_normalization_198[0][0]    
__________________________________________________________________________________________________
dense_301 (Dense)               (None, 10)           210         batch_normalization_200[0][0]    
__________________________________________________________________________________________________
dense_304 (Dense)               (None, 10)           210         batch_normalization_202[0][0]    
__________________________________________________________________________________________________
dense_307 (Dense)               (None, 10)           210         batch_normalization_204[0][0]    
__________________________________________________________________________________________________
dense_310 (Dense)               (None, 10)           210         batch_normalization_206[0][0]    
__________________________________________________________________________________________________
dense_313 (Dense)               (None, 10)           210         batch_normalization_208[0][0]    
__________________________________________________________________________________________________
dense_316 (Dense)               (None, 10)           210         batch_normalization_210[0][0]    
__________________________________________________________________________________________________
dense_319 (Dense)               (None, 10)           210         batch_normalization_212[0][0]    
__________________________________________________________________________________________________
dense_322 (Dense)               (None, 10)           210         batch_normalization_214[0][0]    
__________________________________________________________________________________________________
dense_325 (Dense)               (None, 10)           210         batch_normalization_216[0][0]    
__________________________________________________________________________________________________
dense_328 (Dense)               (None, 10)           210         batch_normalization_218[0][0]    
__________________________________________________________________________________________________
dense_331 (Dense)               (None, 10)           210         batch_normalization_220[0][0]    
__________________________________________________________________________________________________
dense_334 (Dense)               (None, 10)           210         batch_normalization_222[0][0]    
__________________________________________________________________________________________________
dense_337 (Dense)               (None, 10)           210         batch_normalization_224[0][0]    
__________________________________________________________________________________________________
dense_340 (Dense)               (None, 10)           210         batch_normalization_226[0][0]    
__________________________________________________________________________________________________
dense_343 (Dense)               (None, 10)           210         batch_normalization_228[0][0]    
__________________________________________________________________________________________________
dense_346 (Dense)               (None, 10)           210         batch_normalization_230[0][0]    
__________________________________________________________________________________________________
dense_349 (Dense)               (None, 10)           210         batch_normalization_232[0][0]    
__________________________________________________________________________________________________
dense_352 (Dense)               (None, 10)           210         batch_normalization_234[0][0]    
__________________________________________________________________________________________________
dense_355 (Dense)               (None, 10)           210         batch_normalization_236[0][0]    
__________________________________________________________________________________________________
dense_358 (Dense)               (None, 10)           210         batch_normalization_238[0][0]    
__________________________________________________________________________________________________
dense_361 (Dense)               (None, 10)           210         batch_normalization_240[0][0]    
__________________________________________________________________________________________________
dense_364 (Dense)               (None, 10)           210         batch_normalization_242[0][0]    
__________________________________________________________________________________________________
dense_367 (Dense)               (None, 10)           210         batch_normalization_244[0][0]    
__________________________________________________________________________________________________
dense_370 (Dense)               (None, 10)           210         batch_normalization_246[0][0]    
__________________________________________________________________________________________________
dense_373 (Dense)               (None, 10)           210         batch_normalization_248[0][0]    
__________________________________________________________________________________________________
dense_376 (Dense)               (None, 10)           210         batch_normalization_250[0][0]    
__________________________________________________________________________________________________
dense_379 (Dense)               (None, 10)           210         batch_normalization_252[0][0]    
__________________________________________________________________________________________________
dense_382 (Dense)               (None, 10)           210         batch_normalization_254[0][0]    
__________________________________________________________________________________________________
dense_385 (Dense)               (None, 10)           210         batch_normalization_256[0][0]    
__________________________________________________________________________________________________
dense_388 (Dense)               (None, 10)           210         batch_normalization_258[0][0]    
__________________________________________________________________________________________________
dense_391 (Dense)               (None, 10)           210         batch_normalization_260[0][0]    
__________________________________________________________________________________________________
dense_394 (Dense)               (None, 10)           210         batch_normalization_262[0][0]    
__________________________________________________________________________________________________
dense_397 (Dense)               (None, 10)           210         batch_normalization_264[0][0]    
__________________________________________________________________________________________________
dense_400 (Dense)               (None, 10)           210         batch_normalization_266[0][0]    
__________________________________________________________________________________________________
dense_403 (Dense)               (None, 10)           210         batch_normalization_268[0][0]    
__________________________________________________________________________________________________
dense_406 (Dense)               (None, 10)           210         batch_normalization_270[0][0]    
__________________________________________________________________________________________________
dense_409 (Dense)               (None, 10)           210         batch_normalization_272[0][0]    
__________________________________________________________________________________________________
dense_412 (Dense)               (None, 10)           210         batch_normalization_274[0][0]    
__________________________________________________________________________________________________
dense_415 (Dense)               (None, 10)           210         batch_normalization_276[0][0]    
__________________________________________________________________________________________________
dense_418 (Dense)               (None, 10)           210         batch_normalization_278[0][0]    
__________________________________________________________________________________________________
dense_421 (Dense)               (None, 10)           210         batch_normalization_280[0][0]    
__________________________________________________________________________________________________
dense_424 (Dense)               (None, 10)           210         batch_normalization_282[0][0]    
__________________________________________________________________________________________________
dense_427 (Dense)               (None, 10)           210         batch_normalization_284[0][0]    
__________________________________________________________________________________________________
dense_430 (Dense)               (None, 10)           210         batch_normalization_286[0][0]    
__________________________________________________________________________________________________
dense_433 (Dense)               (None, 10)           210         batch_normalization_288[0][0]    
__________________________________________________________________________________________________
dense_436 (Dense)               (None, 10)           210         batch_normalization_290[0][0]    
__________________________________________________________________________________________________
dense_439 (Dense)               (None, 10)           210         batch_normalization_292[0][0]    
__________________________________________________________________________________________________
dense_442 (Dense)               (None, 10)           210         batch_normalization_294[0][0]    
__________________________________________________________________________________________________
dense_445 (Dense)               (None, 10)           210         batch_normalization_296[0][0]    
__________________________________________________________________________________________________
dense_448 (Dense)               (None, 10)           210         batch_normalization_298[0][0]    
__________________________________________________________________________________________________
dense_451 (Dense)               (None, 10)           210         batch_normalization_300[0][0]    
__________________________________________________________________________________________________
dense_454 (Dense)               (None, 10)           210         batch_normalization_302[0][0]    
__________________________________________________________________________________________________
dense_457 (Dense)               (None, 10)           210         batch_normalization_304[0][0]    
__________________________________________________________________________________________________
dense_460 (Dense)               (None, 10)           210         batch_normalization_306[0][0]    
__________________________________________________________________________________________________
dense_463 (Dense)               (None, 10)           210         batch_normalization_308[0][0]    
__________________________________________________________________________________________________
dense_466 (Dense)               (None, 10)           210         batch_normalization_310[0][0]    
__________________________________________________________________________________________________
dense_469 (Dense)               (None, 10)           210         batch_normalization_312[0][0]    
__________________________________________________________________________________________________
dense_472 (Dense)               (None, 10)           210         batch_normalization_314[0][0]    
__________________________________________________________________________________________________
dense_475 (Dense)               (None, 10)           210         batch_normalization_316[0][0]    
__________________________________________________________________________________________________
dense_478 (Dense)               (None, 10)           210         batch_normalization_318[0][0]    
__________________________________________________________________________________________________
dense_481 (Dense)               (None, 10)           210         batch_normalization_320[0][0]    
__________________________________________________________________________________________________
dense_484 (Dense)               (None, 10)           210         batch_normalization_322[0][0]    
__________________________________________________________________________________________________
dense_487 (Dense)               (None, 10)           210         batch_normalization_324[0][0]    
__________________________________________________________________________________________________
dense_490 (Dense)               (None, 10)           210         batch_normalization_326[0][0]    
__________________________________________________________________________________________________
dense_493 (Dense)               (None, 10)           210         batch_normalization_328[0][0]    
__________________________________________________________________________________________________
dense_496 (Dense)               (None, 10)           210         batch_normalization_330[0][0]    
__________________________________________________________________________________________________
dense_499 (Dense)               (None, 10)           210         batch_normalization_332[0][0]    
__________________________________________________________________________________________________
dense_502 (Dense)               (None, 10)           210         batch_normalization_334[0][0]    
__________________________________________________________________________________________________
dense_505 (Dense)               (None, 10)           210         batch_normalization_336[0][0]    
__________________________________________________________________________________________________
dense_508 (Dense)               (None, 10)           210         batch_normalization_338[0][0]    
__________________________________________________________________________________________________
dense_511 (Dense)               (None, 10)           210         batch_normalization_340[0][0]    
__________________________________________________________________________________________________
dense_514 (Dense)               (None, 10)           210         batch_normalization_342[0][0]    
__________________________________________________________________________________________________
dense_517 (Dense)               (None, 10)           210         batch_normalization_344[0][0]    
__________________________________________________________________________________________________
dense_520 (Dense)               (None, 10)           210         batch_normalization_346[0][0]    
__________________________________________________________________________________________________
dense_523 (Dense)               (None, 10)           210         batch_normalization_348[0][0]    
__________________________________________________________________________________________________
dense_526 (Dense)               (None, 10)           210         batch_normalization_350[0][0]    
__________________________________________________________________________________________________
dense_529 (Dense)               (None, 10)           210         batch_normalization_352[0][0]    
__________________________________________________________________________________________________
dense_532 (Dense)               (None, 10)           210         batch_normalization_354[0][0]    
__________________________________________________________________________________________________
dense_535 (Dense)               (None, 10)           210         batch_normalization_356[0][0]    
__________________________________________________________________________________________________
dense_538 (Dense)               (None, 10)           210         batch_normalization_358[0][0]    
__________________________________________________________________________________________________
dense_541 (Dense)               (None, 10)           210         batch_normalization_360[0][0]    
__________________________________________________________________________________________________
dense_544 (Dense)               (None, 10)           210         batch_normalization_362[0][0]    
__________________________________________________________________________________________________
dense_547 (Dense)               (None, 10)           210         batch_normalization_364[0][0]    
__________________________________________________________________________________________________
dense_550 (Dense)               (None, 10)           210         batch_normalization_366[0][0]    
__________________________________________________________________________________________________
dense_553 (Dense)               (None, 10)           210         batch_normalization_368[0][0]    
__________________________________________________________________________________________________
dense_556 (Dense)               (None, 10)           210         batch_normalization_370[0][0]    
__________________________________________________________________________________________________
dense_559 (Dense)               (None, 10)           210         batch_normalization_372[0][0]    
__________________________________________________________________________________________________
dense_562 (Dense)               (None, 10)           210         batch_normalization_374[0][0]    
__________________________________________________________________________________________________
dense_565 (Dense)               (None, 10)           210         batch_normalization_376[0][0]    
__________________________________________________________________________________________________
dense_568 (Dense)               (None, 10)           210         batch_normalization_378[0][0]    
__________________________________________________________________________________________________
dense_571 (Dense)               (None, 10)           210         batch_normalization_380[0][0]    
__________________________________________________________________________________________________
dense_574 (Dense)               (None, 10)           210         batch_normalization_382[0][0]    
__________________________________________________________________________________________________
dense_577 (Dense)               (None, 10)           210         batch_normalization_384[0][0]    
__________________________________________________________________________________________________
dense_580 (Dense)               (None, 10)           210         batch_normalization_386[0][0]    
__________________________________________________________________________________________________
dense_583 (Dense)               (None, 10)           210         batch_normalization_388[0][0]    
__________________________________________________________________________________________________
dense_586 (Dense)               (None, 10)           210         batch_normalization_390[0][0]    
__________________________________________________________________________________________________
dense_589 (Dense)               (None, 10)           210         batch_normalization_392[0][0]    
__________________________________________________________________________________________________
dense_592 (Dense)               (None, 10)           210         batch_normalization_394[0][0]    
__________________________________________________________________________________________________
dense_595 (Dense)               (None, 10)           210         batch_normalization_396[0][0]    
__________________________________________________________________________________________________
dense_598 (Dense)               (None, 10)           210         batch_normalization_398[0][0]    
__________________________________________________________________________________________________
dense_601 (Dense)               (None, 10)           210         batch_normalization_400[0][0]    
__________________________________________________________________________________________________
dense_604 (Dense)               (None, 10)           210         batch_normalization_402[0][0]    
__________________________________________________________________________________________________
dense_607 (Dense)               (None, 10)           210         batch_normalization_404[0][0]    
__________________________________________________________________________________________________
dense_610 (Dense)               (None, 10)           210         batch_normalization_406[0][0]    
__________________________________________________________________________________________________
dense_613 (Dense)               (None, 10)           210         batch_normalization_408[0][0]    
__________________________________________________________________________________________________
dense_616 (Dense)               (None, 10)           210         batch_normalization_410[0][0]    
__________________________________________________________________________________________________
dense_619 (Dense)               (None, 10)           210         batch_normalization_412[0][0]    
__________________________________________________________________________________________________
dense_622 (Dense)               (None, 10)           210         batch_normalization_414[0][0]    
__________________________________________________________________________________________________
dense_625 (Dense)               (None, 10)           210         batch_normalization_416[0][0]    
__________________________________________________________________________________________________
dense_628 (Dense)               (None, 10)           210         batch_normalization_418[0][0]    
__________________________________________________________________________________________________
dense_631 (Dense)               (None, 10)           210         batch_normalization_420[0][0]    
__________________________________________________________________________________________________
dense_634 (Dense)               (None, 10)           210         batch_normalization_422[0][0]    
__________________________________________________________________________________________________
dense_637 (Dense)               (None, 10)           210         batch_normalization_424[0][0]    
__________________________________________________________________________________________________
dense_640 (Dense)               (None, 10)           210         batch_normalization_426[0][0]    
__________________________________________________________________________________________________
dense_643 (Dense)               (None, 10)           210         batch_normalization_428[0][0]    
__________________________________________________________________________________________________
dense_646 (Dense)               (None, 10)           210         batch_normalization_430[0][0]    
__________________________________________________________________________________________________
dense_649 (Dense)               (None, 10)           210         batch_normalization_432[0][0]    
__________________________________________________________________________________________________
dense_652 (Dense)               (None, 10)           210         batch_normalization_434[0][0]    
__________________________________________________________________________________________________
dense_655 (Dense)               (None, 10)           210         batch_normalization_436[0][0]    
__________________________________________________________________________________________________
dense_658 (Dense)               (None, 10)           210         batch_normalization_438[0][0]    
__________________________________________________________________________________________________
dense_661 (Dense)               (None, 10)           210         batch_normalization_440[0][0]    
__________________________________________________________________________________________________
dense_664 (Dense)               (None, 10)           210         batch_normalization_442[0][0]    
__________________________________________________________________________________________________
dense_667 (Dense)               (None, 10)           210         batch_normalization_444[0][0]    
__________________________________________________________________________________________________
dense_670 (Dense)               (None, 10)           210         batch_normalization_446[0][0]    
__________________________________________________________________________________________________
dense_673 (Dense)               (None, 10)           210         batch_normalization_448[0][0]    
__________________________________________________________________________________________________
dense_676 (Dense)               (None, 10)           210         batch_normalization_450[0][0]    
__________________________________________________________________________________________________
dense_679 (Dense)               (None, 10)           210         batch_normalization_452[0][0]    
__________________________________________________________________________________________________
dense_682 (Dense)               (None, 10)           210         batch_normalization_454[0][0]    
__________________________________________________________________________________________________
dense_685 (Dense)               (None, 10)           210         batch_normalization_456[0][0]    
__________________________________________________________________________________________________
dense_688 (Dense)               (None, 10)           210         batch_normalization_458[0][0]    
__________________________________________________________________________________________________
dense_691 (Dense)               (None, 10)           210         batch_normalization_460[0][0]    
__________________________________________________________________________________________________
dense_694 (Dense)               (None, 10)           210         batch_normalization_462[0][0]    
__________________________________________________________________________________________________
dense_697 (Dense)               (None, 10)           210         batch_normalization_464[0][0]    
__________________________________________________________________________________________________
dense_700 (Dense)               (None, 10)           210         batch_normalization_466[0][0]    
__________________________________________________________________________________________________
dense_703 (Dense)               (None, 10)           210         batch_normalization_468[0][0]    
__________________________________________________________________________________________________
…
__________________________________________________________________________________________________
dense_29 (Dense)                (None, 1)            11          batch_normalization_19[0][0]     
__________________________________________________________________________________________________
dense_32 (Dense)                (None, 1)            11          batch_normalization_21[0][0]     
__________________________________________________________________________________________________
dense_35 (Dense)                (None, 1)            11          batch_normalization_23[0][0]     
__________________________________________________________________________________________________
dense_38 (Dense)                (None, 1)            11          batch_normalization_25[0][0]     
__________________________________________________________________________________________________
dense_41 (Dense)                (None, 1)            11          batch_normalization_27[0][0]     
__________________________________________________________________________________________________
dense_44 (Dense)                (None, 1)            11          batch_normalization_29[0][0]     
__________________________________________________________________________________________________
dense_47 (Dense)                (None, 1)            11          batch_normalization_31[0][0]     
__________________________________________________________________________________________________
dense_50 (Dense)                (None, 1)            11          batch_normalization_33[0][0]     
__________________________________________________________________________________________________
dense_53 (Dense)                (None, 1)            11          batch_normalization_35[0][0]     
__________________________________________________________________________________________________
dense_56 (Dense)                (None, 1)            11          batch_normalization_37[0][0]     
__________________________________________________________________________________________________
dense_59 (Dense)                (None, 1)            11          batch_normalization_39[0][0]     
__________________________________________________________________________________________________
dense_62 (Dense)                (None, 1)            11          batch_normalization_41[0][0]     
__________________________________________________________________________________________________
dense_65 (Dense)                (None, 1)            11          batch_normalization_43[0][0]     
__________________________________________________________________________________________________
dense_68 (Dense)                (None, 1)            11          batch_normalization_45[0][0]     
__________________________________________________________________________________________________
dense_71 (Dense)                (None, 1)            11          batch_normalization_47[0][0]     
__________________________________________________________________________________________________
dense_74 (Dense)                (None, 1)            11          batch_normalization_49[0][0]     
__________________________________________________________________________________________________
dense_77 (Dense)                (None, 1)            11          batch_normalization_51[0][0]     
__________________________________________________________________________________________________
dense_80 (Dense)                (None, 1)            11          batch_normalization_53[0][0]     
__________________________________________________________________________________________________
dense_83 (Dense)                (None, 1)            11          batch_normalization_55[0][0]     
__________________________________________________________________________________________________
dense_86 (Dense)                (None, 1)            11          batch_normalization_57[0][0]     
__________________________________________________________________________________________________
dense_89 (Dense)                (None, 1)            11          batch_normalization_59[0][0]     
__________________________________________________________________________________________________
dense_92 (Dense)                (None, 1)            11          batch_normalization_61[0][0]     
__________________________________________________________________________________________________
dense_95 (Dense)                (None, 1)            11          batch_normalization_63[0][0]     
__________________________________________________________________________________________________
dense_98 (Dense)                (None, 1)            11          batch_normalization_65[0][0]     
__________________________________________________________________________________________________
dense_101 (Dense)               (None, 1)            11          batch_normalization_67[0][0]     
__________________________________________________________________________________________________
dense_104 (Dense)               (None, 1)            11          batch_normalization_69[0][0]     
__________________________________________________________________________________________________
dense_107 (Dense)               (None, 1)            11          batch_normalization_71[0][0]     
__________________________________________________________________________________________________
dense_110 (Dense)               (None, 1)            11          batch_normalization_73[0][0]     
__________________________________________________________________________________________________
dense_113 (Dense)               (None, 1)            11          batch_normalization_75[0][0]     
__________________________________________________________________________________________________
dense_116 (Dense)               (None, 1)            11          batch_normalization_77[0][0]     
__________________________________________________________________________________________________
dense_119 (Dense)               (None, 1)            11          batch_normalization_79[0][0]     
__________________________________________________________________________________________________
dense_122 (Dense)               (None, 1)            11          batch_normalization_81[0][0]     
__________________________________________________________________________________________________
dense_125 (Dense)               (None, 1)            11          batch_normalization_83[0][0]     
__________________________________________________________________________________________________
dense_128 (Dense)               (None, 1)            11          batch_normalization_85[0][0]     
__________________________________________________________________________________________________
dense_131 (Dense)               (None, 1)            11          batch_normalization_87[0][0]     
__________________________________________________________________________________________________
dense_134 (Dense)               (None, 1)            11          batch_normalization_89[0][0]     
__________________________________________________________________________________________________
dense_137 (Dense)               (None, 1)            11          batch_normalization_91[0][0]     
__________________________________________________________________________________________________
dense_140 (Dense)               (None, 1)            11          batch_normalization_93[0][0]     
__________________________________________________________________________________________________
dense_143 (Dense)               (None, 1)            11          batch_normalization_95[0][0]     
__________________________________________________________________________________________________
dense_146 (Dense)               (None, 1)            11          batch_normalization_97[0][0]     
__________________________________________________________________________________________________
dense_149 (Dense)               (None, 1)            11          batch_normalization_99[0][0]     
__________________________________________________________________________________________________
dense_152 (Dense)               (None, 1)            11          batch_normalization_101[0][0]    
__________________________________________________________________________________________________
dense_155 (Dense)               (None, 1)            11          batch_normalization_103[0][0]    
__________________________________________________________________________________________________
dense_158 (Dense)               (None, 1)            11          batch_normalization_105[0][0]    
__________________________________________________________________________________________________
dense_161 (Dense)               (None, 1)            11          batch_normalization_107[0][0]    
__________________________________________________________________________________________________
dense_164 (Dense)               (None, 1)            11          batch_normalization_109[0][0]    
__________________________________________________________________________________________________
dense_167 (Dense)               (None, 1)            11          batch_normalization_111[0][0]    
__________________________________________________________________________________________________
dense_170 (Dense)               (None, 1)            11          batch_normalization_113[0][0]    
__________________________________________________________________________________________________
dense_173 (Dense)               (None, 1)            11          batch_normalization_115[0][0]    
__________________________________________________________________________________________________
dense_176 (Dense)               (None, 1)            11          batch_normalization_117[0][0]    
__________________________________________________________________________________________________
dense_179 (Dense)               (None, 1)            11          batch_normalization_119[0][0]    
__________________________________________________________________________________________________
dense_182 (Dense)               (None, 1)            11          batch_normalization_121[0][0]    
__________________________________________________________________________________________________
dense_185 (Dense)               (None, 1)            11          batch_normalization_123[0][0]    
__________________________________________________________________________________________________
dense_188 (Dense)               (None, 1)            11          batch_normalization_125[0][0]    
__________________________________________________________________________________________________
dense_191 (Dense)               (None, 1)            11          batch_normalization_127[0][0]    
__________________________________________________________________________________________________
dense_194 (Dense)               (None, 1)            11          batch_normalization_129[0][0]    
__________________________________________________________________________________________________
dense_197 (Dense)               (None, 1)            11          batch_normalization_131[0][0]    
__________________________________________________________________________________________________
dense_200 (Dense)               (None, 1)            11          batch_normalization_133[0][0]    
__________________________________________________________________________________________________
dense_203 (Dense)               (None, 1)            11          batch_normalization_135[0][0]    
__________________________________________________________________________________________________
dense_206 (Dense)               (None, 1)            11          batch_normalization_137[0][0]    
__________________________________________________________________________________________________
dense_209 (Dense)               (None, 1)            11          batch_normalization_139[0][0]    
__________________________________________________________________________________________________
dense_212 (Dense)               (None, 1)            11          batch_normalization_141[0][0]    
__________________________________________________________________________________________________
dense_215 (Dense)               (None, 1)            11          batch_normalization_143[0][0]    
__________________________________________________________________________________________________
dense_218 (Dense)               (None, 1)            11          batch_normalization_145[0][0]    
__________________________________________________________________________________________________
dense_221 (Dense)               (None, 1)            11          batch_normalization_147[0][0]    
__________________________________________________________________________________________________
dense_224 (Dense)               (None, 1)            11          batch_normalization_149[0][0]    
__________________________________________________________________________________________________
dense_227 (Dense)               (None, 1)            11          batch_normalization_151[0][0]    
__________________________________________________________________________________________________
dense_230 (Dense)               (None, 1)            11          batch_normalization_153[0][0]    
__________________________________________________________________________________________________
dense_233 (Dense)               (None, 1)            11          batch_normalization_155[0][0]    
__________________________________________________________________________________________________
dense_236 (Dense)               (None, 1)            11          batch_normalization_157[0][0]    
__________________________________________________________________________________________________
dense_239 (Dense)               (None, 1)            11          batch_normalization_159[0][0]    
__________________________________________________________________________________________________
dense_242 (Dense)               (None, 1)            11          batch_normalization_161[0][0]    
__________________________________________________________________________________________________
dense_245 (Dense)               (None, 1)            11          batch_normalization_163[0][0]    
__________________________________________________________________________________________________
dense_248 (Dense)               (None, 1)            11          batch_normalization_165[0][0]    
__________________________________________________________________________________________________
dense_251 (Dense)               (None, 1)            11          batch_normalization_167[0][0]    
__________________________________________________________________________________________________
dense_254 (Dense)               (None, 1)            11          batch_normalization_169[0][0]    
__________________________________________________________________________________________________
dense_257 (Dense)               (None, 1)            11          batch_normalization_171[0][0]    
__________________________________________________________________________________________________
dense_260 (Dense)               (None, 1)            11          batch_normalization_173[0][0]    
__________________________________________________________________________________________________
dense_263 (Dense)               (None, 1)            11          batch_normalization_175[0][0]    
__________________________________________________________________________________________________
dense_266 (Dense)               (None, 1)            11          batch_normalization_177[0][0]    
__________________________________________________________________________________________________
dense_269 (Dense)               (None, 1)            11          batch_normalization_179[0][0]    
__________________________________________________________________________________________________
dense_272 (Dense)               (None, 1)            11          batch_normalization_181[0][0]    
__________________________________________________________________________________________________
dense_275 (Dense)               (None, 1)            11          batch_normalization_183[0][0]    
__________________________________________________________________________________________________
dense_278 (Dense)               (None, 1)            11          batch_normalization_185[0][0]    
__________________________________________________________________________________________________
dense_281 (Dense)               (None, 1)            11          batch_normalization_187[0][0]    
__________________________________________________________________________________________________
dense_284 (Dense)               (None, 1)            11          batch_normalization_189[0][0]    
__________________________________________________________________________________________________
dense_287 (Dense)               (None, 1)            11          batch_normalization_191[0][0]    
__________________________________________________________________________________________________
dense_290 (Dense)               (None, 1)            11          batch_normalization_193[0][0]    
__________________________________________________________________________________________________
dense_293 (Dense)               (None, 1)            11          batch_normalization_195[0][0]    
__________________________________________________________________________________________________
dense_296 (Dense)               (None, 1)            11          batch_normalization_197[0][0]    
__________________________________________________________________________________________________
dense_299 (Dense)               (None, 1)            11          batch_normalization_199[0][0]    
__________________________________________________________________________________________________
dense_302 (Dense)               (None, 1)            11          batch_normalization_201[0][0]    
__________________________________________________________________________________________________
dense_305 (Dense)               (None, 1)            11          batch_normalization_203[0][0]    
__________________________________________________________________________________________________
dense_308 (Dense)               (None, 1)            11          batch_normalization_205[0][0]    
__________________________________________________________________________________________________
dense_311 (Dense)               (None, 1)            11          batch_normalization_207[0][0]    
__________________________________________________________________________________________________
dense_314 (Dense)               (None, 1)            11          batch_normalization_209[0][0]    
__________________________________________________________________________________________________
dense_317 (Dense)               (None, 1)            11          batch_normalization_211[0][0]    
__________________________________________________________________________________________________
dense_320 (Dense)               (None, 1)            11          batch_normalization_213[0][0]    
__________________________________________________________________________________________________
dense_323 (Dense)               (None, 1)            11          batch_normalization_215[0][0]    
__________________________________________________________________________________________________
dense_326 (Dense)               (None, 1)            11          batch_normalization_217[0][0]    
__________________________________________________________________________________________________
dense_329 (Dense)               (None, 1)            11          batch_normalization_219[0][0]    
__________________________________________________________________________________________________
dense_332 (Dense)               (None, 1)            11          batch_normalization_221[0][0]    
__________________________________________________________________________________________________
dense_335 (Dense)               (None, 1)            11          batch_normalization_223[0][0]    
__________________________________________________________________________________________________
dense_338 (Dense)               (None, 1)            11          batch_normalization_225[0][0]    
__________________________________________________________________________________________________
dense_341 (Dense)               (None, 1)            11          batch_normalization_227[0][0]    
__________________________________________________________________________________________________
dense_344 (Dense)               (None, 1)            11          batch_normalization_229[0][0]    
__________________________________________________________________________________________________
dense_347 (Dense)               (None, 1)            11          batch_normalization_231[0][0]    
__________________________________________________________________________________________________
dense_350 (Dense)               (None, 1)            11          batch_normalization_233[0][0]    
__________________________________________________________________________________________________
dense_353 (Dense)               (None, 1)            11          batch_normalization_235[0][0]    
__________________________________________________________________________________________________
dense_356 (Dense)               (None, 1)            11          batch_normalization_237[0][0]    
__________________________________________________________________________________________________
dense_359 (Dense)               (None, 1)            11          batch_normalization_239[0][0]    
__________________________________________________________________________________________________
dense_362 (Dense)               (None, 1)            11          batch_normalization_241[0][0]    
__________________________________________________________________________________________________
dense_365 (Dense)               (None, 1)            11          batch_normalization_243[0][0]    
__________________________________________________________________________________________________
dense_368 (Dense)               (None, 1)            11          batch_normalization_245[0][0]    
__________________________________________________________________________________________________
dense_371 (Dense)               (None, 1)            11          batch_normalization_247[0][0]    
__________________________________________________________________________________________________
dense_374 (Dense)               (None, 1)            11          batch_normalization_249[0][0]    
__________________________________________________________________________________________________
dense_377 (Dense)               (None, 1)            11          batch_normalization_251[0][0]    
__________________________________________________________________________________________________
dense_380 (Dense)               (None, 1)            11          batch_normalization_253[0][0]    
__________________________________________________________________________________________________
dense_383 (Dense)               (None, 1)            11          batch_normalization_255[0][0]    
__________________________________________________________________________________________________
dense_386 (Dense)               (None, 1)            11          batch_normalization_257[0][0]    
__________________________________________________________________________________________________
dense_389 (Dense)               (None, 1)            11          batch_normalization_259[0][0]    
__________________________________________________________________________________________________
dense_392 (Dense)               (None, 1)            11          batch_normalization_261[0][0]    
__________________________________________________________________________________________________
dense_395 (Dense)               (None, 1)            11          batch_normalization_263[0][0]    
__________________________________________________________________________________________________
dense_398 (Dense)               (None, 1)            11          batch_normalization_265[0][0]    
__________________________________________________________________________________________________
dense_401 (Dense)               (None, 1)            11          batch_normalization_267[0][0]    
__________________________________________________________________________________________________
dense_404 (Dense)               (None, 1)            11          batch_normalization_269[0][0]    
__________________________________________________________________________________________________
dense_407 (Dense)               (None, 1)            11          batch_normalization_271[0][0]    
__________________________________________________________________________________________________
dense_410 (Dense)               (None, 1)            11          batch_normalization_273[0][0]    
__________________________________________________________________________________________________
dense_413 (Dense)               (None, 1)            11          batch_normalization_275[0][0]    
__________________________________________________________________________________________________
dense_416 (Dense)               (None, 1)            11          batch_normalization_277[0][0]    
__________________________________________________________________________________________________
dense_419 (Dense)               (None, 1)            11          batch_normalization_279[0][0]    
__________________________________________________________________________________________________
dense_422 (Dense)               (None, 1)            11          batch_normalization_281[0][0]    
__________________________________________________________________________________________________
dense_425 (Dense)               (None, 1)            11          batch_normalization_283[0][0]    
__________________________________________________________________________________________________
dense_428 (Dense)               (None, 1)            11          batch_normalization_285[0][0]    
__________________________________________________________________________________________________
dense_431 (Dense)               (None, 1)            11          batch_normalization_287[0][0]    
__________________________________________________________________________________________________
dense_434 (Dense)               (None, 1)            11          batch_normalization_289[0][0]    
__________________________________________________________________________________________________
dense_437 (Dense)               (None, 1)            11          batch_normalization_291[0][0]    
__________________________________________________________________________________________________
dense_440 (Dense)               (None, 1)            11          batch_normalization_293[0][0]    
__________________________________________________________________________________________________
dense_443 (Dense)               (None, 1)            11          batch_normalization_295[0][0]    
__________________________________________________________________________________________________
dense_446 (Dense)               (None, 1)            11          batch_normalization_297[0][0]    
__________________________________________________________________________________________________
dense_449 (Dense)               (None, 1)            11          batch_normalization_299[0][0]    
__________________________________________________________________________________________________
dense_452 (Dense)               (None, 1)            11          batch_normalization_301[0][0]    
__________________________________________________________________________________________________
dense_455 (Dense)               (None, 1)            11          batch_normalization_303[0][0]    
__________________________________________________________________________________________________
dense_458 (Dense)               (None, 1)            11          batch_normalization_305[0][0]    
__________________________________________________________________________________________________
dense_461 (Dense)               (None, 1)            11          batch_normalization_307[0][0]    
__________________________________________________________________________________________________
dense_464 (Dense)               (None, 1)            11          batch_normalization_309[0][0]    
__________________________________________________________________________________________________
dense_467 (Dense)               (None, 1)            11          batch_normalization_311[0][0]    
__________________________________________________________________________________________________
dense_470 (Dense)               (None, 1)            11          batch_normalization_313[0][0]    
__________________________________________________________________________________________________
dense_473 (Dense)               (None, 1)            11          batch_normalization_315[0][0]    
__________________________________________________________________________________________________
dense_476 (Dense)               (None, 1)            11          batch_normalization_317[0][0]    
__________________________________________________________________________________________________
dense_479 (Dense)               (None, 1)            11          batch_normalization_319[0][0]    
__________________________________________________________________________________________________
dense_482 (Dense)               (None, 1)            11          batch_normalization_321[0][0]    
__________________________________________________________________________________________________
dense_485 (Dense)               (None, 1)            11          batch_normalization_323[0][0]    
__________________________________________________________________________________________________
dense_488 (Dense)               (None, 1)            11          batch_normalization_325[0][0]    
__________________________________________________________________________________________________
dense_491 (Dense)               (None, 1)            11          batch_normalization_327[0][0]    
__________________________________________________________________________________________________
dense_494 (Dense)               (None, 1)            11          batch_normalization_329[0][0]    
__________________________________________________________________________________________________
dense_497 (Dense)               (None, 1)            11          batch_normalization_331[0][0]    
__________________________________________________________________________________________________
dense_500 (Dense)               (None, 1)            11          batch_normalization_333[0][0]    
__________________________________________________________________________________________________
dense_503 (Dense)               (None, 1)            11          batch_normalization_335[0][0]    
__________________________________________________________________________________________________
dense_506 (Dense)               (None, 1)            11          batch_normalization_337[0][0]    
__________________________________________________________________________________________________
dense_509 (Dense)               (None, 1)            11          batch_normalization_339[0][0]    
__________________________________________________________________________________________________
dense_512 (Dense)               (None, 1)            11          batch_normalization_341[0][0]    
__________________________________________________________________________________________________
dense_515 (Dense)               (None, 1)            11          batch_normalization_343[0][0]    
__________________________________________________________________________________________________
dense_518 (Dense)               (None, 1)            11          batch_normalization_345[0][0]    
__________________________________________________________________________________________________
dense_521 (Dense)               (None, 1)            11          batch_normalization_347[0][0]    
__________________________________________________________________________________________________
dense_524 (Dense)               (None, 1)            11          batch_normalization_349[0][0]    
__________________________________________________________________________________________________
dense_527 (Dense)               (None, 1)            11          batch_normalization_351[0][0]    
__________________________________________________________________________________________________
dense_530 (Dense)               (None, 1)            11          batch_normalization_353[0][0]    
__________________________________________________________________________________________________
dense_533 (Dense)               (None, 1)            11          batch_normalization_355[0][0]    
__________________________________________________________________________________________________
dense_536 (Dense)               (None, 1)            11          batch_normalization_357[0][0]    
__________________________________________________________________________________________________
dense_539 (Dense)               (None, 1)            11          batch_normalization_359[0][0]    
__________________________________________________________________________________________________
dense_542 (Dense)               (None, 1)            11          batch_normalization_361[0][0]    
__________________________________________________________________________________________________
dense_545 (Dense)               (None, 1)            11          batch_normalization_363[0][0]    
__________________________________________________________________________________________________
dense_548 (Dense)               (None, 1)            11          batch_normalization_365[0][0]    
__________________________________________________________________________________________________
dense_551 (Dense)               (None, 1)            11          batch_normalization_367[0][0]    
__________________________________________________________________________________________________
dense_554 (Dense)               (None, 1)            11          batch_normalization_369[0][0]    
__________________________________________________________________________________________________
dense_557 (Dense)               (None, 1)            11          batch_normalization_371[0][0]    
__________________________________________________________________________________________________
dense_560 (Dense)               (None, 1)            11          batch_normalization_373[0][0]    
__________________________________________________________________________________________________
dense_563 (Dense)               (None, 1)            11          batch_normalization_375[0][0]    
__________________________________________________________________________________________________
dense_566 (Dense)               (None, 1)            11          batch_normalization_377[0][0]    
__________________________________________________________________________________________________
dense_569 (Dense)               (None, 1)            11          batch_normalization_379[0][0]    
__________________________________________________________________________________________________
dense_572 (Dense)               (None, 1)            11          batch_normalization_381[0][0]    
__________________________________________________________________________________________________
dense_575 (Dense)               (None, 1)            11          batch_normalization_383[0][0]    
__________________________________________________________________________________________________
dense_578 (Dense)               (None, 1)            11          batch_normalization_385[0][0]    
__________________________________________________________________________________________________
dense_581 (Dense)               (None, 1)            11          batch_normalization_387[0][0]    
__________________________________________________________________________________________________
dense_584 (Dense)               (None, 1)            11          batch_normalization_389[0][0]    
__________________________________________________________________________________________________
dense_587 (Dense)               (None, 1)            11          batch_normalization_391[0][0]    
__________________________________________________________________________________________________
dense_590 (Dense)               (None, 1)            11          batch_normalization_393[0][0]    
__________________________________________________________________________________________________
dense_593 (Dense)               (None, 1)            11          batch_normalization_395[0][0]    
__________________________________________________________________________________________________
dense_596 (Dense)               (None, 1)            11          batch_normalization_397[0][0]    
__________________________________________________________________________________________________
dense_599 (Dense)               (None, 1)            11          batch_normalization_399[0][0]    
__________________________________________________________________________________________________
dense_602 (Dense)               (None, 1)            11          batch_normalization_401[0][0]    
__________________________________________________________________________________________________
dense_605 (Dense)               (None, 1)            11          batch_normalization_403[0][0]    
__________________________________________________________________________________________________
dense_608 (Dense)               (None, 1)            11          batch_normalization_405[0][0]    
__________________________________________________________________________________________________
dense_611 (Dense)               (None, 1)            11          batch_normalization_407[0][0]    
__________________________________________________________________________________________________
dense_614 (Dense)               (None, 1)            11          batch_normalization_409[0][0]    
__________________________________________________________________________________________________
dense_617 (Dense)               (None, 1)            11          batch_normalization_411[0][0]    
__________________________________________________________________________________________________
dense_620 (Dense)               (None, 1)            11          batch_normalization_413[0][0]    
__________________________________________________________________________________________________
dense_623 (Dense)               (None, 1)            11          batch_normalization_415[0][0]    
__________________________________________________________________________________________________
dense_626 (Dense)               (None, 1)            11          batch_normalization_417[0][0]    
__________________________________________________________________________________________________
dense_629 (Dense)               (None, 1)            11          batch_normalization_419[0][0]    
__________________________________________________________________________________________________
dense_632 (Dense)               (None, 1)            11          batch_normalization_421[0][0]    
__________________________________________________________________________________________________
dense_635 (Dense)               (None, 1)            11          batch_normalization_423[0][0]    
__________________________________________________________________________________________________
dense_638 (Dense)               (None, 1)            11          batch_normalization_425[0][0]    
__________________________________________________________________________________________________
dense_641 (Dense)               (None, 1)            11          batch_normalization_427[0][0]    
__________________________________________________________________________________________________
dense_644 (Dense)               (None, 1)            11          batch_normalization_429[0][0]    
__________________________________________________________________________________________________
dense_647 (Dense)               (None, 1)            11          batch_normalization_431[0][0]    
__________________________________________________________________________________________________
dense_650 (Dense)               (None, 1)            11          batch_normalization_433[0][0]    
__________________________________________________________________________________________________
dense_653 (Dense)               (None, 1)            11          batch_normalization_435[0][0]    
__________________________________________________________________________________________________
dense_656 (Dense)               (None, 1)            11          batch_normalization_437[0][0]    
__________________________________________________________________________________________________
dense_659 (Dense)               (None, 1)            11          batch_normalization_439[0][0]    
__________________________________________________________________________________________________
dense_662 (Dense)               (None, 1)            11          batch_normalization_441[0][0]    
__________________________________________________________________________________________________
dense_665 (Dense)               (None, 1)            11          batch_normalization_443[0][0]    
__________________________________________________________________________________________________
dense_668 (Dense)               (None, 1)            11          batch_normalization_445[0][0]    
__________________________________________________________________________________________________
dense_671 (Dense)               (None, 1)            11          batch_normalization_447[0][0]    
__________________________________________________________________________________________________
dense_674 (Dense)               (None, 1)            11          batch_normalization_449[0][0]    
__________________________________________________________________________________________________
dense_677 (Dense)               (None, 1)            11          batch_normalization_451[0][0]    
__________________________________________________________________________________________________
dense_680 (Dense)               (None, 1)            11          batch_normalization_453[0][0]    
__________________________________________________________________________________________________
dense_683 (Dense)               (None, 1)            11          batch_normalization_455[0][0]    
__________________________________________________________________________________________________
dense_686 (Dense)               (None, 1)            11          batch_normalization_457[0][0]    
__________________________________________________________________________________________________
dense_689 (Dense)               (None, 1)            11          batch_normalization_459[0][0]    
__________________________________________________________________________________________________
dense_692 (Dense)               (None, 1)            11          batch_normalization_461[0][0]    
__________________________________________________________________________________________________
dense_695 (Dense)               (None, 1)            11          batch_normalization_463[0][0]    
__________________________________________________________________________________________________
dense_698 (Dense)               (None, 1)            11          batch_normalization_465[0][0]    
__________________________________________________________________________________________________
dense_701 (Dense)               (None, 1)            11          batch_normalization_467[0][0]    
__________________________________________________________________________________________________
dense_704 (Dense)               (None, 1)            11          batch_normalization_469[0][0]    
__________________________________________________________________________________________________
dense_707 (Dense)               (None, 1)            11          batch_normalization_471[0][0]    
__________________________________________________________________________________________________
dense_710 (Dense)               (None, 1)            11          batch_normalization_473[0][0]    
__________________________________________________________________________________________________
dense_713 (Dense)               (None, 1)            11          batch_normalization_475[0][0]    
__________________________________________________________________________________________________
dense_716 (Dense)               (None, 1)            11          batch_normalization_477[0][0]    
__________________________________________________________________________________________________
dense_719 (Dense)               (None, 1)            11          batch_normalization_479[0][0]    
__________________________________________________________________________________________________
dense_722 (Dense)               (None, 1)            11          batch_normalization_481[0][0]    
__________________________________________________________________________________________________
dense_725 (Dense)               (None, 1)            11          batch_normalization_483[0][0]    
__________________________________________________________________________________________________
dense_728 (Dense)               (None, 1)            11          batch_normalization_485[0][0]    
__________________________________________________________________________________________________
dense_731 (Dense)               (None, 1)            11          batch_normalization_487[0][0]    
__________________________________________________________________________________________________
dense_734 (Dense)               (None, 1)            11          batch_normalization_489[0][0]    
__________________________________________________________________________________________________
dense_737 (Dense)               (None, 1)            11          batch_normalization_491[0][0]    
__________________________________________________________________________________________________
dense_740 (Dense)               (None, 1)            11          batch_normalization_493[0][0]    
__________________________________________________________________________________________________
dense_743 (Dense)               (None, 1)            11          batch_normalization_495[0][0]    
__________________________________________________________________________________________________
dense_746 (Dense)               (None, 1)            11          batch_normalization_497[0][0]    
__________________________________________________________________________________________________
dense_749 (Dense)               (None, 1)            11          batch_normalization_499[0][0]    
__________________________________________________________________________________________________
dense_752 (Dense)               (None, 1)            11          batch_normalization_501[0][0]    
__________________________________________________________________________________________________
dense_755 (Dense)               (None, 1)            11          batch_normalization_503[0][0]    
__________________________________________________________________________________________________
dense_758 (Dense)               (None, 1)            11          batch_normalization_505[0][0]    
__________________________________________________________________________________________________
dense_761 (Dense)               (None, 1)            11          batch_normalization_507[0][0]    
__________________________________________________________________________________________________
dense_764 (Dense)               (None, 1)            11          batch_normalization_509[0][0]    
__________________________________________________________________________________________________
dense_767 (Dense)               (None, 1)            11          batch_normalization_511[0][0]    
__________________________________________________________________________________________________
concatenate (Concatenate)       (None, 256)          0           dense_2[0][0]                    
                                                                 dense_5[0][0]                    
                                                                 dense_8[0][0]                    
                                                                 dense_11[0][0]                   
                                                                 dense_14[0][0]                   
…
